mnist.pt (torch, 440065 bytes, 12 tensors)

weight f4 [16, 1, 3, 3]
-0.22766548 0.31047955 0.24639572 -0.2853434 -0.31675756 0.15689519 -0.26644412 0.081117235
-0.4176434 0.15854962 -0.055915117 0.045425065 -0.1806567 0.11052175 0.402963 -0.36556956
-0.2016106 0.32731646 -0.027960274 -0.05325314 0.14184159 0.11687851 -0.24852398 0.21311378
0.2777307 -0.26522154 0.20539334 -0.14279288 -0.2772924 -0.19428484 -0.11131782 -0.11302025
0.35185307 -0.26122707 0.14958245 -0.027182508 0.30951008 -0.04444111 0.17404465 0.3356036
-0.13590594 -0.21824954 -0.056900326 -0.15840358 -0.34663948 0.31650284 0.30996606 0.21627112
0.32599062 -0.019005243 0.06686233 -0.07707913 -0.049588416 0.1308762 -0.010025207 0.25179687
-0.21137373 -0.12763241 0.21941802 0.08446981 0.22774522 0.32128683 0.052788258 -0.22382076
-0.20298573 0.17402394 -0.13147877 0.14706266 0.12759478 0.33525854 0.014319095 0.23079967
-0.11995733 -0.20537044 -0.19299176 0.22394069 -0.06018992 -0.38747913 0.102383316 0.24375379
0.3332046 -0.0531316 -0.29096058 -0.13732472 -0.30662152 0.1962277 0.00024658543 0.21631138
0.13454163 0.2508723 0.16629788 0.17911889 0.0812308 0.101032 -0.23991288 0.07818361
0.09667451 -0.010879817 0.19328845 -0.009765647 -0.1972065 -0.16216998 -0.03328621 -0.339263
0.030050648 -0.23933694 -0.09626186 0.16962169 0.10837698 -0.035902064 -0.1076477 -0.09799206
-0.2307907 -0.27361476 0.16182625 -0.2984963 -0.057156168 -0.32813916 -0.2653126 -0.21079648
-0.18651783 0.1118844 -0.18966036 -0.03245417 0.201929 0.38793242 -0.189167 -0.55988073
-0.1846328 -0.47336364 0.1553285 -0.028674984 -0.124140605 -0.20228407 0.3838084 -0.054085374
-0.13893569 -0.10177831 -0.16552965 -0.1637296 -0.32214734 0.02032896 0.20104615 -0.27999306
00000000: 2421 69be 2df7 9e3e 294f 7c3e 8818 92be
00000010: 0c2e a2be 22a9 203e 5d6b 88be cb20 a63d
00000020: 5bd5 d5be d55a 223e 4007 65bd a20f 3a3d
00000030: 12fe 38be 3a59 e23d 2b51 ce3e ef2b bbbe
00000040: 0273 4ebe 0696 a73e f20c e5bc f71f 5abd
00000050: ec3e 113e 005e ef3d 127d 7ebe 803a 5a3e
00000060: b832 8e3e 1ecb 87be a252 523e 4c38 12be
00000070: 45f9 8dbe 9bf2 46be 99fa e3bd 2977 e7bd
00000080: 1626 b43e 8ebf 85be 242c 193e daad debc
00000090: 1b78 9e3e e207 36bd c338 323e 3cd4 ab3e
000000a0: ed2a 0bbe cf7c 5fbe 5110 69bd 8c34 22be
000000b0: bb7a b1be a90c a23e dfb3 9e3e 2d76 5d3e
000000c0: 3ee8 a63e e2b0 9bbc 1eef 883d aadb 9dbd
000000d0: 391d 4bbd 6904 063e c440 24bc 85eb 803e
000000e0: 5b72 58be 12b2 02be 1eaf 603e 82fe ac3d
000000f0: 0b36 693e b57f a43e 8038 583d 4531 65be
00000100: 7edb 4fbe 5533 323e 5fa2 06be 9897 163e
00000110: 35a8 023e 02a7 ab3e a39a 6a3c c056 6c3e
00000120: 30ac f5bd a14c 52be a29f 45be b550 653e
00000130: b589 76bd aa63 c6be 58ae d13d 989a 793e
00000140: cb99 aa3e 85a0 59bd c9f8 94be da9e 0cbe
00000150: 7ffd 9cbe eaef 483e 2348 8139 bb80 5d3e
00000160: 48c5 093e 5672 803e fe49 2a3e f16a 373e
00000170: 555c a63d dde9 ce3d b9ab 75be bb1e a03d
00000180: 49fd c53d 4341 32bc 68ed 453e 1800 20bc
00000190: 80f0 49be e30f 26be 1f57 08bd e1b3 adbe
000001a0: c72c f63c be14 75be f024 c5bd 4fb1 2d3e
000001b0: c0f4 dd3d 0b0e 13bd 6676 dcbd 10b0 c8bd
000001c0: 6654 6cbe 3c17 8cbe c8b5 253e 82d4 98be
000001d0: 961c 6abd db01 a8be 0ed7 87be 08db 57be
000001e0: 88fe 3ebe a623 e53d 5336 42be aaee 04bd
000001f0: 7ac6 4e3e 149f c63e feb4 41be 5854 0fbf
00000200: 6110 3dbe b85c f2be 6f0e 1f3e cde7 eabc
00000210: 6e3d febd 8e23 4fbe 8982 c43e a088 5dbd
00000220: 2845 0ebe 2671 d0bd 9b80 29be bba8 27be
00000230: 7ff0 a4be eb88 a63c 0bdf 4d3e 405b 8fbe

bias f4 [16]
0.025614033 -0.16445822 -0.19742475 -0.0062482506 -0.0049597304 0.004654951 -0.1777043 0.13393517
0.0012486146 -0.17029285 0.15115398 0.35778412 -0.32155868 -0.13982986 -0.00034495146 -0.29135132
00000000: 85d4 d13c bc67 28be b729 4abe 20be ccbb
00000010: 3c85 a2bb 8f88 983b 1ef8 35be 4d26 093e
00000020: 8ea8 a33a 4061 2ebe 1cc8 1a3e 7b2f b73e
00000030: 57a3 a4be 8f2f 0fbe 9ada b4b9 002c 95be

weight f4 [32, 16, 3, 3]
-0.034428127 0.01049414 0.119385295 -0.03866217 -0.05967946 -0.03471651 -0.2172052 -0.24453828
-0.18508019 -0.09066774 0.09196774 0.13390574 0.056736697 0.07230424 0.14054458 -0.08188364
-0.09346427 0.09136781 -0.036071796 -0.169124 -0.00903246 -0.017597673 0.0149847735 0.024677135
0.05152836 -0.024379184 0.13211352 -0.058130287 -0.07533821 0.04371096 0.073675916 -0.069961816
-0.02487612 0.06600264 0.09623945 0.028418284 0.08208873 0.11811137 -0.090126924 -0.0019411321
0.0058369646 -0.10608598 0.0017551726 -0.12588188 -0.17765594 0.037714444 0.12041851 0.15685913
0.061978042 0.049314506 0.12306734 -0.038261592 -0.03997788 0.0146562485 0.018119093 -0.07178639
0.048397295 -0.11006658 0.03586356 0.12150244 -0.0561094 0.042359065 0.0856663 -0.038202137
-0.034815103 0.07626476 -0.050884187 -0.00013284234 0.17398472 0.045830306 0.037693866 0.15620257
-0.09822958 -0.10890648 -0.026360866 -0.027984904 -0.057885986 -0.089805186 0.06837866 0.07457181
-0.012777069 0.12731406 -0.037473105 -0.14332515 0.18788086 0.036621112 0.03642162 0.12712494
0.050056346 -0.006170547 -0.025739994 -0.07945029 0.071148604 -0.021908345 -0.023564417 0.005047399
-0.121350594 0.054436594 0.10466205 -0.18368413 -0.096811295 -0.050085686 -0.023996264 0.019449692
-0.0070291893 -0.05961321 -0.09525902 -0.049185205 0.024906188 -0.035762005 -0.028409373 -0.0735421
0.0128742065 0.037667356 0.077132136 -0.044642877 0.075590454 0.027636653 0.040924072 -0.08664339
0.066558346 0.02247776 -0.020140747 0.051028624 -0.007909142 -0.049813926 0.004427179 -0.002874151
-0.064984106 -0.009954345 -0.037125587 0.053511765 0.08368998 0.16105908 0.07171287 0.06574484
0.029023122 0.054402124 0.01147907 -0.07102185 0.0778548 0.003906111 0.05502402 0.073284164
0.023201413 -0.033956766 -0.079011016 -0.014346039 -0.015835557 -0.09791612 0.022503844 -0.024803255
-0.03529889 0.0046527344 -0.003539964 0.047357652 0.017043816 0.040104777 -0.068815015 -0.061990093
0.09402544 -0.041643202 -0.14528504 -0.14850907 0.115273766 0.048273172 -0.047312047 0.03767532
0.057446595 0.05091694 0.015854761 0.027949443 -0.008118387 0.09662193 -0.055935573 0.007404181
0.1485823 0.1702292 0.0017427446 0.0952236 0.25012493 0.08257645 0.05547677 0.19662684
0.15498167 0.021717038 0.12324921 0.14180315 -0.025917826 0.027162693 0.07704533 0.019933658
0.11182435 -0.076928675 -0.1249377 0.055588182 -0.016086642 -0.12037397 0.12305089 0.06104472
-0.0941658 0.047112256 0.04599168 -0.072173305 0.14202514 0.030970486 -0.05629794 -0.030901792
-0.12133943 -0.017921193 0.022317618 -0.09823147 -0.040794373 -0.019819176 0.036133025 0.034064
0.01199483 0.024220776 0.0149493255 -0.14471571 -0.11490307 0.003130452 -0.053364966 -0.17533508
-0.14564887 -0.12151954 -0.24583238 -0.122531526 -0.107471116 -0.10960234 -0.18331137 -0.039771922
-0.103991285 -0.12618212 0.14253485 0.05684866 -0.023230556 0.053406652 0.0011716682 -0.08897018
0.11455079 -0.060703482 0.0039066398 -0.07007057 0.056289934 0.017696472 -0.04786056 -0.04786131
-0.05019707 0.008652512 0.0242587 -0.029250009 0.074547544 0.040411733 -0.008052876 -0.026196938
00000000: 8204 0dbd 9def 2b3c 4780 f43d 395c 1ebd
00000010: 7372 74bd e632 0ebd 0a6b 5ebe 3e68 7abe
00000020: a985 3dbe 02b0 b9bd 9559 bc3d 961e 093e
00000030: bd64 683d 3f14 943d ebea 0f3e 9cb2 a7bd
00000040: 326a bfbd 0c1f bb3d 05c0 13bd d82e 2dbe
00000050: e2fc 13bc ff28 90bc b282 753c b427 ca3c
00000060: 670f 533d dbb6 c7bc c448 073e 061a 6ebd
00000070: eb4a 9abd 430a 333d 66e3 963d 2448 8fbd
00000080: 01c9 cbbc 642c 873d 3019 c53d 76cd e83c
00000090: 231e a83d 60e4 f13d 7794 b8bd 966d feba
000000a0: 0244 bf3b 9b43 d9bd d20d e63a 2ee7 00be
000000b0: 70eb 35be 767a 1a3d fb9d f63d ae9f 203e
000000c0: b0dc 7d3d 02fe 493d bb0a fc3d 30b8 1cbd
000000d0: d8bf 23bd c320 703c 7e6e 943c be04 93bd
000000e0: 3e3c 463d 966a e1bd abe5 123d 45d6 f83d
000000f0: f8d2 65bd b380 2d3d d071 af3d d879 1cbd
00000100: 489a 0ebd b330 9c3d f06b 50bd 984b 0bb9
00000110: 0d29 323e 8fb8 3b3d e264 1a3d 91f3 1f3e
00000120: 972c c9bd 5c0a dfbd bef2 d7bc 9940 e5bc
00000130: db19 6dbd c8eb b7bd 1c0a 8c3d 1bb9 983d
00000140: e956 51bc 9e5e 023e 667d 19bd d4c3 12be
00000150: d763 403e 0500 163d d62e 153d 0a2d 023e
00000160: e207 4d3d 4d32 cabb aedc d2bc d5b6 a2bd
00000170: 5cb6 913d 2179 b3bc 2a0a c1bc a764 a53b
00000180: a986 f8bd e8f8 5e3d 0f59 d63d b117 3cbe
00000190: 0045 c6bd a626 4dbd d093 c4bc f654 9f3c
000001a0: 1d55 e6bb fb2c 74bd 2917 c3bd 6d76 49bd
000001b0: 1008 cc3c 2e7b 12bd c6ba e8bc 3e9d 96bd
000001c0: 56ee 523c 1649 1a3d 74f7 9d3d 73db 36bd
000001d0: 2bcf 9a3d 4366 e23c 00a0 273d 1772 b1bd
000001e0: be4f 883d 4823 b83c 35fe a4bc 6403 513d
000001f0: 5995 01bc b009 4cbd df11 913b 415c 3cbb
00000200: 6316 85bd 8d17 23bc 0011 18bd 272f 5b3d
00000210: a765 ab3d acec 243e 32de 923d 3ba5 863d
00000220: e6c1 ed3c c3d4 5e3d b612 3c3c e773 91bd
00000230: 5672 9f3d abfd 7f3b de60 613d 0216 963d
00000240: e410 be3c 4016 0bbd 87d0 a1bd a60b 6bbc
00000250: 92b9 81bc 3f88 c8bd fb59 b83c 3230 cbbc
00000260: 9295 10bd f775 983b befe 67bb 19fa 413d
00000270: 799f 8b3c e844 243d e3ee 8cbd 53e9 7dbd
00000280: 6990 c03d 1092 2abd 9ac5 14be c312 18be
00000290: a714 ec3d 17ba 453d 47ca 41bd 7051 1a3d
000002a0: 1f4d 6b3d 488e 503d d8e1 813c 3bf6 e43c
000002b0: fc02 05bc b8e1 c53d b31c 65bd c69e f23b
000002c0: f525 183e 9050 2e3e ce6c e43a 9704 c33d
000002d0: 6010 803e d81d a93d 9c3b 633d 8c58 493e
000002e0: 84b3 1e3e eee7 b13c 156a fc3d d834 113e
000002f0: 9f51 d4bc 4c84 de3c f1c9 9d3d e94b a33c
00000300: 2a04 e53d c88c 9dbd 56df ffbd 6fb0 633d
00000310: 22c8 83bc a186 f6bd 1b02 fc3d 070a 7a3d
00000320: 00da c0bd c8f8 403d c661 3c3d 99cf 93bd
00000330: 0a6f 113e d1b5 fd3c ab98 66bd c125 fdbc
00000340: cf80 f8bd 77cf 92bc 70d3 b63c 952d c9bd
00000350: 0018 27bd d35b a2bc 3900 143d b186 0b3d
00000360: f785 443c a66a c63c 04ee 743c 5b30 14be
00000370: 4d52 ebbd 4528 4d3b 3995 5abd 0a8b 33be
00000380: fa24 15be 3ddf f8bd 7cbb 7bbe cff1 fabd
00000390: d119 dcbd 3177 e0bd fab5 3bbe e2e7 22bd
000003a0: 62f9 d4bd e335 01be a8f4 113e 24da 683d
000003b0: 024e bebc efc0 5a3d a992 993a ff35 b6bd
000003c0: 9b99 ea3d 37a4 78bd 4503 803b 2981 8fbd
000003d0: 4690 663d 31f8 903c 6f09 44bd 390a 44bd
000003e0: 719b 4dbd 44c3 0d3c 2eba c63c b79d efbc
000003f0: 62ac 983d c686 253d 36f0 03bc f69a d6bc

bias f4 [32]
-0.07671049 0.029581672 -0.018029707 -0.105862506 0.13754135 0.041819032 -0.02793762 0.10668396
0.006655424 -0.035544533 0.03784529 0.0054687993 0.01821504 -0.06460733 -0.001132777 0.06431131
-0.02505531 -0.028528675 -0.06327808 -0.009234216 -0.058968216 0.3166583 -0.053490028 -0.06468718
-0.026087565 0.063613884 0.07505681 0.04434446 -0.024282275 -0.043182544 0.056034893 -0.036812097
00000000: 641a 9dbd 4355 f23c 09b3 93bc 71ce d8bd
00000010: a4d7 0c3e 6f4a 2b3d 70dd e4bc 1f7d da3d
00000020: be15 da3b 2597 11bd aa03 1b3d 9d33 b33b
00000030: b537 953c d950 84bd b079 94ba a6b5 833d
00000040: cb40 cdbc f8b4 e9bc f097 81bd 1c4b 17bc
00000050: a888 71bd 0921 a23e 5c18 5bbd b67a 84bd
00000060: 97b5 d5bc ff47 823d 63b7 993d 89a2 353d
00000070: 9feb c6bc 2ee0 30bd d884 653d 48c8 16bd

weight f4 [64, 32, 3, 3]
-0.12517369 -0.070368186 -0.078984916 -0.002035268 -0.041395027 0.051429667 0.05049795 -0.04576401
0.038196743 -0.053016964 -0.03248271 0.025623934 -0.034974266 -0.17722563 -0.14006026 0.050876264
-0.011174602 -0.034380045 -0.14285806 -0.004632786 0.028371789 0.0058929417 -0.09488334 -0.08415669
-0.016635371 -0.0030631952 0.07537076 -0.096392974 -0.13332613 -0.056261048 0.064776376 -0.02048575
-0.011345045 0.08698219 0.030521192 0.05011626 -0.1920371 -0.22441666 -0.12294492 -0.028007379
-0.022328168 -0.034816787 0.002410052 -0.028186852 -0.06641232 -0.24027747 -0.1642114 -0.23847008
0.041100275 -0.0013849122 0.08404445 0.016398571 0.017080002 0.018643796 -0.041543778 0.029825347
-0.022358885 -0.032397315 0.052547764 -0.032624766 0.07097345 0.06351535 0.09569815 -0.232097
-0.14611219 -0.20341462 0.013964192 -0.08203558 -0.0012986154 0.051620923 -0.03939526 0.021747502
-0.0686606 -0.0248909 -0.013991216 0.008568762 0.0017160863 -0.023291517 0.05608095 0.0028139167
0.034804452 -0.044862185 -0.052529667 -0.110812165 0.010242482 -0.043824762 -0.055709355 0.022864325
-0.033508636 0.062100574 -0.12506762 -0.10149591 -0.07719909 0.00034883252 -0.0023177753 0.0010734944
-0.032248087 0.002396119 -0.03345065 -0.16047809 -0.17872925 -0.09584706 0.087806 0.005878074
0.009630544 -0.039869815 -0.009735058 -0.0019488818 -0.13174576 -0.17359835 -0.18076377 0.06622929
-0.012023718 2.965338e-07 0.0025464855 -0.016508818 0.032100175 -0.0030911448 -0.0229714 -0.012247861
0.02689934 0.021666903 -0.002957664 0.019552037 -0.006516363 0.08841754 -0.043036547 -0.049612045
-0.032859452 -0.036807496 0.0033342794 0.014855331 0.015821898 0.03626851 -0.04418843 -0.14945655
-0.17961907 -0.17999057 0.069710545 0.07028454 0.051125355 0.029073233 -0.013008292 0.0565608
-0.061777297 -0.06524317 -0.039309084 -0.039940875 -0.018030697 0.028885834 -0.0052590407 -0.062934116
0.034001466 -0.07665824 0.01205245 -0.010076861 0.025010252 0.060958974 -0.09908388 0.031080095
0.062322907 0.013794993 0.010548668 -0.04716472 0.009378861 0.05534248 0.0039318586 -0.058554407
-0.045774553 -0.0051456597 0.008812119 0.035070967 0.030971983 -0.016046913 0.024484383 0.05738037
-0.05804266 -0.021164918 -0.036881704 0.04820666 -0.13253713 -0.140434 -0.09531163 -0.042239886
-0.04495398 0.0038070178 0.039911233 -0.017186787 0.11544683 -0.20112012 -0.16354792 -0.20031478
-0.027727706 -0.06753457 -0.010974368 -0.01279592 -0.051570177 -0.029738035 -0.023424473 -0.058236636
-0.052332617 -0.03525447 0.02293554 -0.0220797 0.09696577 0.10958325 0.078381695 -0.07279423
-0.08985578 -0.104638495 0.053145085 -0.0012866191 0.036985166 0.04463166 -0.0988857 -0.009310128
-0.12547892 -0.056939323 -0.059428908 -0.04806499 0.018423181 0.01263434 0.06261293 0.010615831
0.055438593 -0.1776835 -0.2327762 -0.16596693 -0.026290314 -0.009599313 0.03558553 0.0478152
0.031813927 0.027019378 -0.07660909 -0.012304564 0.01629709 0.027690819 -3.0041683e-05 -0.023208352
-0.025609998 0.08398842 0.112349845 -0.057083808 -0.014949163 -0.07307372 0.041606873 0.090234876
0.03844153 0.012159729 0.072342 0.027608126 -0.0345468 -0.06613523 0.008488541 0.087677106
00000000: 882d 00be 321d 90bd d8c2 a1bd 2162 05bb
00000010: d58d 29bd eaa7 523d f0d6 4e3d 0b73 3bbd
00000020: 3074 1c3d 5128 59bd 970c 05bd 49e9 d13c
00000030: 2d41 0fbd a37a 35be f56b 0fbe a163 503d
00000040: ae15 37bc 17d2 0cbd 6249 12be a0ce 97bb
00000050: f46b e83c 9419 c13b 3252 c2bd 585a acbd
00000060: e746 88bc e3bf 48bb fc5b 9a3d ae69 c5bd
00000070: a586 08be fc71 66bd 7aa9 843d bbd1 a7bc
00000080: 91e0 39bc b823 b23d 9407 fa3c b546 4d3d
00000090: 60a5 44be 7bcd 65be 8cca fbbd bb6f e5bc
000000a0: 90e9 b6bc 0c9c 0ebd f7f1 1d3b 1de8 e6bc
000000b0: 2f03 88bd 4c0b 76be 0927 28be 8031 74be
000000c0: c358 283d f185 b5ba 7f1f ac3d 4c56 863c
000000d0: 5ceb 8b3c e0ba 983c cf29 2abd 4954 f43c
000000e0: fb29 b7bc 0cb3 04bd 533c 573d 8ca1 05bd
000000f0: 875a 913d 5614 823d 64fd c33d d6aa 6dbe
00000100: 6f9e 15be ec4b 50be 11ca 643c 4502 a8bd
00000110: 4d36 aaba 7670 533d ed5c 21bd d127 b23c
00000120: ee9d 8cbd 00e8 cbbc 6a3b 65bc fe63 0c3c
00000130: 4dee e03a dacd bebc 23b5 653d b069 383b
00000140: 1d8f 0e3d 69c1 37bd 5929 57bd 7df1 e2bd
00000150: 15d0 273c 9881 33bd 7e2f 64bd f74d bb3c
00000160: 5a40 09bd 2c5d 7e3d ba11 00be 16dd cfbd
00000170: 8e1a 9ebd 82e3 b639 d1e5 17bb 7fb4 8c3a
00000180: 9216 04bd 3508 1d3b 8c03 09bd 5e54 24be
00000190: cd04 37be 774b c4bd a2d3 b33d dc9c c03b
000001a0: 6ec9 1d3c 884e 23bd cb7f 1fbc 9f71 ffba
000001b0: 5ce8 06be c4c3 31be 231a 39be 39a3 873d
000001c0: 21ff 44bc 4c33 9f34 f0e2 263b 803d 87bc
000001d0: 797b 033d ce94 4abb 842e bcbc 41ab 48bc
000001e0: 015c dc3c ca7e b13c 5ed5 41bb 982b a03c
000001f0: 3787 d5bb 4114 b53d 1747 30bd 0036 4bbd
00000200: a297 06bd 75c3 16bd ed83 5a3b c663 733c
00000210: ed9c 813c 4a8e 143d edfe 34bd 230b 19be
00000220: 10ee 37be 734f 38be 67c4 8e3d 57f1 8f3d
00000230: d268 513d fd2a ee3c bb20 55bc 4cac 673d
00000240: 310a 7dbd 369e 85bd 9002 21bd 0b99 23bd
00000250: 1db5 93bc fca1 ec3c 0854 acbb 9ae3 80bd
00000260: 1f45 0b3d fffe 9cbd a477 453c 6b19 25bc
00000270: 4de2 cc3c 1eb0 793d 7dec cabd af9b fe3c
00000280: 4e46 7f3d 6504 623c 52d4 2c3c cb2f 41bd
00000290: cba9 193c ccae 623d d2d6 803b bfd6 6fbd
000002a0: 197e 3bbd ec9c a8bb b560 103c 93a6 0f3d
000002b0: f5b8 fd3c d174 83bc 7993 c83c ae07 6b3d
000002c0: 24be 6dbd 0d62 adbc 4511 17bd 5974 453d
000002d0: d0b7 07be eecd 0fbe be32 c3bd bb03 2dbd
000002e0: aa21 38bd 297f 793b f679 233d 4ecb 8cbc
000002f0: 636f ec3d 6ff2 4dbe 1b79 27be 511f 4dbe
00000300: 3725 e3bc 914f 8abd d6cd 33bc faa5 51bc
00000310: 403b 53bd 2e9d f3bc aee4 bfbc 8a89 6ebd
00000320: ba5a 56bd fe66 10bd 50e3 bb3c 7de0 b4bc
00000330: fd95 c63d 2f6d e03d 9586 a03d 2415 95bd
00000340: 4f06 b8bd b54c d6bd a9ae 593d c6a3 a8ba
00000350: c27d 173d b0cf 363d 9684 cabd 8289 18bc
00000360: 8c7d 00be 3539 69bd ba6b 73bd ccdf 44bd
00000370: 36ec 963c 4300 4f3c 353b 803d 06ee 2d3c
00000380: 9413 633d aaf2 35be e25c 6ebe 3cf3 29be
00000390: c95e d7bc 7046 1dbc 22c2 113d dfd9 433d
000003a0: 524f 023d be57 dd3c 3ae5 9cbd 1599 49bc
000003b0: 7a81 853c dbd7 e23c 0602 fcb7 711f bebc
000003c0: 0fcc d1bc 1f02 ac3d ad17 e63d b6d0 69bd
000003d0: 56ed 74bc ada7 95bd f86b 2a3d 10cd b83d
000003e0: de74 1d3d 9a39 473c 0b28 943d 702a e23c
000003f0: f280 0dbd e871 87bd 8513 0b3c 0e90 b33d

bias f4 [64]
-0.0067314715 0.009159672 -0.075396165 0.04931188 -0.021765968 -0.001094472 -0.05820451 -0.06313194
-0.071549505 0.09521917 -0.04858369 -0.029281063 0.017987035 0.089967996 -0.029244361 0.028685844
0.09565578 0.031502083 0.00045183368 0.052274827 -0.030763417 0.02699068 -0.06664159 -0.013839427
-0.041337296 -0.0051875915 0.07746257 -0.057353243 -0.09039962 -0.03229385 0.009894488 -0.047091536
0.040298987 -0.02133964 0.07083997 -0.027031604 0.0065440973 -0.028741986 -0.0022354303 -0.119804025
-0.032810528 0.044434484 -0.011062185 0.010652881 0.010146742 0.034129664 -0.034556933 0.12888253
-0.03182443 -0.08878663 0.054912824 0.08678858 -0.05923408 0.03682826 -0.053587075 -0.022267701
-0.056497466 -0.028121231 -0.039393865 0.00025245035 0.012937483 0.009703911 -0.039230656 -0.043649957
00000000: ad93 dcbb 7312 163c 4e69 9abd 41fb 493d
00000010: 8b4e b2bc 6374 8fba da67 6ebd 524b 81bd
00000020: 8c88 92bd 4502 c33d b1ff 46bd d7de efbc
00000030: 8c59 933c 2441 b83d df91 efbc 93fe ea3c
00000040: 2de7 c33d 5408 013d 17e4 ec39 211e 563d
00000050: 9003 fcbc 8f1b dd3c 637b 88bd c4be 62bc
00000060: 4c51 29bd acfc a9bb b2a4 9e3d 3ceb 6abd
00000070: 7023 b9bd 8e46 04bd 7e1c 223c 0ee3 40bd
00000080: 8d10 253d 78d0 aebc 8c14 913d 6271 ddbc
00000090: de6f d63b 5074 ebbc 4c80 12bb d05b f5bd
000000a0: 5564 06bd ef00 363d 2b3e 35bc 6c89 2e3c
000000b0: 853e 263c 8ccb 0b3d 928b 0dbd c8f9 033e
000000c0: 555a 02bd c4d5 b5bd 45ec 603d 36be b13d
000000d0: 6f9f 72bd 3bd9 163d 1f7e 5bbd c16a b6bc
000000e0: e369 67bd 7f5e e6bc 765b 21bd 505b 8439
000000f0: bdf7 533c 27fd 1e3c 53b0 20bd 4cca 32bd

weight f4 [256, 64]
-0.1086958 0.060526405 0.0392586 -0.08443925 -0.0792606 0.0031908606 0.06930821 -0.052603953
0.18973655 -0.06450772 0.12646219 0.096477956 0.020731095 0.00381268 0.13074778 0.06618741
0.1357074 0.01320998 -0.017034184 0.16196644 -0.062048122 -0.05100654 -0.07087134 -0.105447285
0.013583346 0.063476205 -0.07104513 0.10251592 0.02889494 -0.06651582 -0.10309392 -0.093335286
0.057217818 0.1560423 0.056766152 0.13562971 -0.12186587 0.110698596 -0.004295477 -0.026670568
-0.006958325 -0.07218188 0.047104392 0.09995306 0.16629241 0.15477923 0.03457653 0.047348943
0.14678697 -0.10109013 0.088980444 0.12002533 -0.07852942 -0.0622845 0.108299315 0.121371165
0.006126806 0.068051204 -0.10004978 -0.121166445 0.021444336 0.09105023 -0.09428806 0.009860095
0.098833285 0.006285752 0.020808607 -0.033666495 -0.14614736 0.03327071 0.054827865 -0.09239048
0.052750245 0.15960309 -0.09613385 -0.075497076 -0.013168926 0.10250752 -0.13232338 -0.060186002
-0.2243663 -0.08528801 0.150522 -0.17601763 -0.12027026 0.014726028 0.04581569 0.08546921
0.15679742 -0.041891985 -0.007694747 -0.050474934 -0.009045572 -0.11112385 -0.023161752 -0.104514286
0.114501566 -0.1383652 -0.032192424 -0.12528165 -0.12590213 -0.064704224 -0.031824578 0.03214624
0.12628826 -0.051294737 -0.0191028 0.04024456 0.0015344307 -0.01451272 0.09185854 0.06949454
0.025002796 0.010365603 -0.10908899 0.054114435 -0.11804891 0.028247995 -0.08365877 0.12153888
-0.017590053 0.031485394 -0.113652445 0.08724642 0.10609169 -0.07019122 -0.109733045 -0.07576261
0.11447732 0.18559349 -0.057163678 0.21619585 -0.042336572 0.08360582 0.039851412 0.034385324
-0.0064849993 -0.021130832 -0.095189445 0.073973194 0.10524329 0.01926654 -0.011583899 0.07168628
-0.0017401545 0.09190578 -0.016101087 -0.07873619 -0.07199911 -0.089366384 0.09921509 0.028842913
-0.12632184 -0.07226856 0.13965492 0.0746181 0.120408796 -0.064635605 -0.07355846 0.06042877
0.051604617 -0.10757045 0.013841837 -0.0013156135 -0.08674446 -0.112989455 0.27420586 0.08541454
-0.0018308422 -0.09698009 0.0835963 0.060864557 -0.062736556 0.08271903 0.0982107 -0.0074661984
0.12853234 0.13649058 0.044662148 -0.04623968 -0.033239797 -0.11547553 0.0295994 0.07641766
-0.08880408 0.039942384 -0.11554039 0.06479089 -0.039699905 0.16839032 0.06018509 -0.021149088
0.21185674 0.0036256695 -0.028358072 0.22005874 0.05922868 0.0074440115 0.04184134 -0.042582132
0.021059444 -0.039231732 -0.25239784 0.058204666 0.0076784687 -0.07602773 -0.006256197 0.054951265
-0.08447087 0.0018259503 -0.06960436 -0.083091035 -0.053996857 0.068961665 0.0402745 0.031870794
-0.11594614 0.024081543 -0.08363405 0.11084649 0.11278388 -0.07221437 0.0902387 -0.0829766
0.006173914 -0.010220788 0.032564715 -0.049742598 0.01576368 0.069027334 0.17052667 0.18929963
0.041951407 0.070466384 -0.030668598 -0.12474132 0.06046493 -0.16317092 -0.14253959 -0.11444446
-0.10258809 0.12680751 0.0437522 0.079174325 -0.10539761 0.048308108 0.17402452 -0.023148697
-0.06430431 0.05491504 0.009766468 -0.07304855 0.008315347 -0.08123826 -0.03952823 0.07782043
00000000: e79b debd 89ea 773d a0cd 203d 7cee acbd
00000010: 6253 a2bd c21d 513b 76f1 8d3d 3e77 57bd
00000020: 4c4a 423e a01c 84bd 4e7f 013e 3c96 c53d
00000030: 42d4 a93c 28de 793b bfe2 053e 448d 873d
00000040: e1f6 0a3e ac6e 583c 468b 8bbc 88da 253e
00000050: 2c26 7ebd 3cec 50bd fe24 91bd bff4 d7bd
00000060: af8c 5e3c d0ff 813d 1c80 91bd def3 d13d
00000070: 15b5 ec3c 7239 88bd e822 d3bd 9226 bfbd
00000080: 3b5d 6a3d 8dc9 1f3e a083 683d 84e2 0a3e
00000090: d094 f9bd f2b5 e23d 13c1 8cbb 3c7c dabc
000000a0: a902 e4bb 18d4 93bd 89f0 403d 31b4 cc3d
000000b0: 8f48 2a3e 727e 1e3e 1fa0 0d3d f7f0 413d
000000c0: 534f 163e 5808 cfbd 613b b63d d7cf f53d
000000d0: 08d4 a0bd 081e 7fbd 08cc dd3d 7291 f83d
000000e0: 60c3 c83b 6e5e 8b3d e6e6 ccbd 1d26 f8bd
000000f0: 08ac af3c 8b78 ba3d 191a c1bd 3c8c 213c
00000100: 1b69 ca3d b6f8 cd3b d076 aa3c e1e5 09bd
00000110: a7a7 15be de46 083d 2f93 603d 3837 bdbd
00000120: a410 583d fe6e 233e d3e1 c4bd 369e 9abd
00000130: 7bc2 57bc 76ef d13d c87f 07be 9985 76bd
00000140: 48c0 65be 7bab aebd 7022 1a3e f73d 34be
00000150: 4150 f6bd 7045 713c 3ca9 3b3d 7b0a af3d
00000160: 818f 203e ee96 2bbd 3724 fcbb cebe 4ebd
00000170: e133 14bc e794 e3bd b7bd bdbc 960b d6bd
00000180: cc7f ea3d 9baf 0dbe 34dc 03bd d549 00be
00000190: 7dec 00be a683 84bd 7d5a 02bd c7ab 033d
000001a0: b651 013e 6e1a 52bd 7a7d 9cbc 7bd7 243d
000001b0: f31e c93a c2c6 6dbc 5520 bc3d 2753 8e3d
000001c0: aad2 cc3c 7dd4 293c 0c6a dfbd 19a7 5d3d
000001d0: a0c3 f1bd 5768 e73c 4a55 abbd 60e9 f83d
000001e0: 0419 90bc d4f6 003d 9dc2 e8bd 40ae b23d
000001f0: 9a46 d93d 6ac0 8fbd b8bb e0bd 6d29 9bbd
00000200: 1673 ea3d 380c 3e3e 7624 6abd 7262 5d3e
00000210: 1d69 2dbd 8739 ab3d 3c3b 233d a0d7 0c3d
00000220: 1e80 d4bb 911a adbc aff2 c2bd 427f 973d
00000230: cb89 d73d ddd4 9d3c 65ca 3dbc 42d0 923d
00000240: e515 e4ba 1939 bc3d 6de6 83bc 7140 a1bd
00000250: 4574 93bd b905 b7bd 4831 cb3d f947 ec3c
00000260: 835a 01be 8a01 94bd b301 0f3e 60d1 983d
00000270: e398 f63d ac5f 84bd d1a5 96bd 2884 773d
00000280: 5d5f 533d e54d dcbd dfc8 623c aa70 acba
00000290: 14a7 b1bd 0467 e7bd b664 8c3e d1ed ae3d
000002a0: dff8 efba 7f9d c6bd 8934 ab3d 1d4d 793d
000002b0: 067c 80bd 9868 a93d b122 c93d 03a7 f4bb
000002c0: fb9d 033e 30c4 0b3e a8ef 363d d265 3dbd
000002d0: 7426 08bd 6f7e ecbd 717a f23c dd80 9c3d
000002e0: eade b5bd a09a 233d 71a0 ecbd 16b1 843d
000002f0: 5e9c 22bd 836e 2c3e a484 763d da40 adbc
00000300: f9f0 583e a49c 6d3b 304f e8bc 1457 613e
00000310: c699 723d e5ec f33b d361 2b3d 9a6a 2ebd
00000320: db84 ac3c 74b1 20bd 4a3a 81be 0468 6e3d
00000330: aa9b fb3b 6db4 9bbd c900 cdbb 9414 613d
00000340: 10ff acbd ba54 ef3a bb8c 8ebd a22b aabd
00000350: cf2b 5dbd c63b 8d3d e0f6 243d f38a 023d
00000360: 2b75 edbd a846 c53c 5448 abbd 7c03 e33d
00000370: 3cfb e63d 21e5 93bd 11cf b83d a3ef a9bd
00000380: 8b4e ca3b 1875 27bc 9462 053d e5be 4bbd
00000390: d522 813c 345e 8d3d 8b9e 2e3e c3d7 413e
000003a0: 3dd5 2b3d ae50 903d b63c fbbc 6178 ffbd
000003b0: 13aa 773d 4716 27be e6f5 11be db61 eabd
000003c0: b419 d2bd d4d9 013e 8235 333d 2626 a23d
000003d0: b4da d7bd b9de 453d 7c33 323e 56a2 bdbc
000003e0: fab1 83bd 98ee 603d 8903 203c 7a9a 95bd
000003f0: 183d 083c 3f60 a6bd 5ae8 21bd 5160 9f3d

bias f4 [256]
0.02424595 -0.0834274 -0.0035598981 -0.030143417 0.10527367 0.038384322 0.087762736 0.021915602
0.08740806 -0.04593978 0.09058878 0.032533944 -0.03203588 -0.015426731 0.014983592 -0.15071394
-0.04462161 0.08256101 -0.06830462 -0.11703795 -0.076339655 -0.1172822 -0.04399107 0.035140775
0.10226313 0.10421141 -0.033479284 0.09710028 -0.029708607 0.10154312 0.10401282 0.07978724
-0.051380407 0.03940602 0.0010654664 -0.055458244 -0.020842379 0.12090402 0.0938589 -0.02792434
-0.109221265 0.017960025 0.06212984 0.08807056 -0.045708656 0.06442128 0.13635552 0.122384526
0.04575679 0.10310298 0.024102632 0.13301645 0.01483889 -0.08919795 0.022467889 -0.087906756
-0.080936976 -0.12898849 0.10137351 -0.057927586 -0.042312376 0.034215756 -0.08384935 -0.05266905
0.0018091253 0.13772407 0.05598403 0.12073043 -0.07758367 0.15123886 0.060283072 -0.03843614
0.107853346 0.103670344 0.046970543 0.09104575 -0.100084536 0.017160572 0.07927388 0.05065454
-0.09352247 -0.0054408833 -0.09715422 0.06892183 0.113742396 0.13286294 -0.024798675 0.1737672
0.009124287 0.11570619 -0.09439941 -0.020209238 -0.030053018 0.07912871 -0.03824746 0.07409275
-0.14445274 -0.04123661 0.03518077 -0.013007326 0.11454489 0.15952685 -0.07930223 -0.10950495
0.009231316 0.072225906 -0.070096225 0.07478358 0.11643253 0.02071906 -0.0035352614 0.15006563
0.0025550127 0.13018157 -0.020783233 -0.058435988 -0.13418792 0.055494502 -0.071453296 0.021283925
-0.08176434 0.14237067 0.09606624 -0.096362695 -0.05252163 -0.020927789 -0.0029482713 -0.072218545
-0.121259995 -0.08147973 -0.086556666 0.13254611 -0.035057895 0.01437088 -0.110195585 0.0022719365
0.13986592 -0.04411783 -0.041439913 0.049828466 0.075549185 0.16751705 -0.0708646 -0.099838525
-0.027914083 0.10233346 -0.07297094 0.060062155 -0.037680496 0.021729104 0.048293065 -0.10205704
0.016619332 0.1553667 -0.03823428 0.065115444 -0.04161919 -0.1346958 0.1153172 0.12802263
0.0026439277 -0.08716633 -0.111393765 0.12825017 0.080326945 -0.0060054297 -0.07902818 0.08851035
0.025307246 -0.075740464 0.13519864 0.11893584 0.086863205 -0.039159838 -0.09837189 0.034710918
-0.03182512 -0.004834993 0.0018273229 0.101866014 0.02390803 0.098874256 0.051718615 -0.050381817
-0.0099898465 0.069845065 -0.005942404 -0.12625884 -0.010448902 -0.03260884 -0.102846175 0.046071723
0.045275398 0.03490977 -0.08374652 0.10296457 0.016288744 0.06374241 -0.10180581 0.17147169
0.016746406 -0.014826559 -0.066479824 0.017294252 -0.0023690015 -0.075469844 0.17865403 0.0078071626
-0.029560264 -0.111970924 0.045341186 0.13314399 -0.13047467 -0.07376208 0.100726254 -0.032409143
-0.11950216 0.07154373 0.09128081 -0.066541135 -0.124514244 0.10177915 -0.033442896 -0.001561642
-0.01504403 0.024852065 -0.13326995 0.039913345 0.08457772 0.1656409 0.07614635 0.0044780006
-0.107474126 0.1425179 -0.04911314 -0.060932927 -0.017948192 -0.018967828 0.16005956 0.01674635
0.14599933 0.027595684 -0.07727435 0.05542627 0.013588205 0.05741151 -0.029456753 -0.09217322
0.15899129 -0.07812688 0.017644262 -0.060278405 0.08378449 -0.019927884 -0.04286035 0.116897315
00000000: 719f c63c fcdb aabd 2e4d 69bb 54ef f6bc
00000010: b999 d73d e138 1d3d f3bc b33d 5988 b33c
00000020: ff02 b33d 5a2b 3cbd 9c86 b93d 5042 053d
00000030: 0e38 03bd 66c0 7cbc bd7d 753c c154 1abe
00000040: 26c5 36bd bf15 a93d 4be3 8bbd 98b1 efbd
00000050: f757 9cbd a631 f0bd fb2f 34bd c6ef 0f3d
00000060: 556f d13d cb6c d53d 9321 09bd 83dc c63d
00000070: 775f f3bc d7f5 cf3d ac04 d53d 7e67 a33d
00000080: 4374 52bd 3568 213d 1fa7 8b3a 2f28 63bd
00000090: a3bd aabc 879c f73d 1839 c03d 96c1 e4bc
000000a0: 66af dfbd e720 933c dc7b 7e3d 565e b43d
000000b0: 0039 3bbd 4eef 833d c8a0 0b3e bda4 fa3d
000000c0: 796b 3b3d a827 d33d e272 c53c 7735 083e
000000d0: d11e 733c 6aad b6bd 940e b83c 7508 b4bd
000000e0: 49c2 a5bd 8f15 04be ea9c cf3d 7a45 6dbd
000000f0: be4f 2dbd d225 0c3d 35b9 abbd 80bb 57bd
00000100: 2c20 ed3a 8a07 0d3e 834f 653d 8441 f73d
00000110: 30e4 9ebd 5cde 1a3e 62eb 763d 376f 1dbd
00000120: 37e2 dc3d 1e51 d43d 2f64 403d 3276 ba3d
00000130: 1ff9 ccbd 5494 8c3c 585a a23d 237b 4f3d
00000140: b588 bfbd 7049 b2bb cbf8 c6bd e326 8d3d
00000150: c6f1 e83d 390d 083e 9726 cbbc 07f0 313e
00000160: 097e 153c 5ef7 ec3d 7a54 c1bd d88d a5bc
00000170: bf31 f6bc 3c0e a23d 5ea9 1cbd f1bd 973d
00000180: 6beb 13be b8e7 28bd b619 103d ae1c 55bc
00000190: 8396 ea3d 025b 233e 3569 a2bd 2244 e0bd
000001a0: f23e 173c 2deb 933d 9c8e 8fbd 2228 993d
000001b0: 2e74 ee3d 05bb a93c d8af 67bb ceaa 193e
000001c0: 0072 273b 514e 053e 9941 aabc 935a 6fbd
000001d0: 8f68 09be 344e 633d 1b56 92bd a05b ae3c
000001e0: 1074 a7bd 9ec9 113e 60be c43d ce59 c5bd
000001f0: ec20 57bd c170 abbc c937 41bb 51e7 93bd
00000200: 2957 f8bd d8de a6bd 9f44 b1bd 2bba 073e
00000210: de98 0fbd d773 6b3c 39ae e1bd c5e4 143b
00000220: 0339 0f3e e6b4 34bd e6bc 29bd ef18 4c3d
00000230: 88b9 9a3d 9789 2b3e 7621 91bd 2478 ccbd
00000240: 13ac e4bc 3494 d13d ca71 95bd bc03 763d
00000250: dd56 1abd 3c01 b23c f3ce 453d 4803 d1bd
00000260: 4425 883c 7318 1f3e 8c9b 1cbd 3f5b 853d
00000270: e278 2abd b2ed 09be 6d2b ec3d 5d18 033e
00000280: bf45 2d3b 4384 b2bd 6a22 e4bd 0354 033e
00000290: 7482 a43d 32c9 c4bb 87d9 a1bd ea44 b53d
000002a0: 2451 cf3c d11d 9bbd 8371 0a3e a294 f33d
000002b0: 56e5 b13d 1166 20bd 3477 c9bd 092d 0e3d
000002c0: 0f5b 02bd dc6e 9ebb c882 ef3a 219f d03d
000002d0: c6da c33c 967e ca3d e6d6 533d 2a5d 4ebd
000002e0: 74ac 23bc ee0a 8f3d 7fb8 c2bb ff49 01be
000002f0: df31 2bbc d990 05bd 04a1 d2bd b4b5 3c3d
00000300: b272 393d 8cfd 0e3d 4c83 abbd 17df d23d
00000310: f96f 853c 618b 823d 917f d0bd 4696 2f3e
00000320: c22f 893c 19eb 72bc 9326 88bd adac 8d3c
00000330: 4041 1bbb ef8f 9abd 15f1 363e 3ad3 ff3b
00000340: 5e28 f2bc 0351 e5bd aeb7 393d e656 083e
00000350: 279b 05be 9310 97bd 9149 ce3d 73bf 04bd
00000360: 8cbd f4bd 8585 923d 6ff1 ba3d b846 88bd
00000370: 5301 ffbd 9671 d03d 6bfb 08bd 03b0 ccba
00000380: 3c7b 76bc 8f96 cb3c eb77 08be 2d7c 233d
00000390: 1537 ad3d c59d 293e 9ef2 9b3d 31bc 923b
000003a0: 651b dcbd 36f0 113e dc2a 49bd ce94 79bd
000003b0: 1608 93bc 6b62 9bbc a7e6 233e a42f 893c
000003c0: d980 153e 5810 e23c 0442 9ebd a806 633d
000003d0: 10a1 5e3c 5528 6b3d 4a4f f1bc 50c5 bcbd
000003e0: 9dce 223e fc00 a0bd b38a 903c 7de6 76bd
000003f0: 3497 ab3d cd3f a3bc 568e 2fbd dc67 ef3d

weight f4 [256, 256]
0.071135186 -0.07146159 0.063668154 -0.09465915 0.07175551 -0.04166517 0.008862882 -0.029922228
-0.05399519 0.04920802 0.026963795 0.04384721 -0.05998081 -0.036332868 0.14341179 -0.04922524
0.0067692166 0.052028786 0.010539517 -0.083779745 0.0011408847 -0.05061285 0.024299918 0.00037421336
0.09078835 0.019271022 0.041463085 0.064088285 -0.04699802 -0.04103496 -0.030043831 -0.027586507
0.07965983 -0.034434598 0.052892257 0.01774685 -0.06759009 0.007312675 -0.031420402 -0.06046395
0.061636135 0.055988606 0.032733615 -0.02107725 -0.05888553 0.06455624 0.04164698 -0.0031291242
0.007544777 0.038440116 0.07158352 0.025929142 -0.023992352 0.04828493 -0.070497066 0.036307245
0.10659028 -0.021757701 0.052839354 0.053099394 -0.014603515 0.033669397 -0.040752064 0.07606453
-0.0020669051 -0.012256294 0.05795196 0.053974085 0.049868383 0.044759005 0.048585635 0.021333812
-0.07598975 0.021696087 0.0677367 -0.12398778 0.043495476 0.026175184 0.0066927946 0.00408196
0.05621332 -0.07201396 -0.043345843 0.042899508 0.034606993 -0.0020396945 0.16641577 0.0668214
0.13563551 -0.0376196 0.013717383 -0.07516998 0.013386331 0.1274335 0.03282193 0.012509664
0.005417446 -0.059177995 0.0069715134 0.043627374 0.055347957 -0.02612779 0.0023107124 0.033068776
0.11532658 -0.12605686 -0.024188388 -0.03035428 -0.0007214471 -0.045164227 -0.04290571 0.07685795
0.05055152 0.013128109 -0.033523932 0.054746933 0.084654905 -0.01734049 -0.047634996 -0.026182853
0.034038857 -0.029195122 -0.039246008 -0.059602633 -0.06938625 -0.043585096 0.0085853655 0.057791177
0.0015303732 -0.015172447 0.032802094 -0.040760078 -0.011660988 0.05758505 0.022422912 0.044916652
-0.03103801 -0.016890429 -0.046776354 0.1561119 0.02034411 -0.088814825 0.01196066 0.005820134
0.027118193 0.025825491 -0.07728851 0.038115434 0.054523807 -0.0110867685 -0.02579935 0.020044848
0.08950746 0.16210616 -0.036628637 0.0103679495 -0.042900965 0.039256606 0.06815332 -0.04541485
-0.07339882 -0.08235996 -0.045480486 -0.010949181 -0.021284262 -0.10015456 0.07723741 -0.022500189
-0.00033041948 -0.052060917 -0.019734142 -0.0315089 0.051568244 0.10393876 -0.02551078 -0.04868864
-0.07372274 0.08928678 -0.055871814 -0.036340363 -0.07696288 0.032823272 0.008097709 0.08169901
0.086875975 0.0036374598 -0.03234422 0.035617884 0.046441395 0.13379334 0.14962944 0.035186745
-0.055286285 -0.030581273 -0.042185742 0.054183267 -0.08187593 0.041533254 -0.045269918 0.051237356
0.04347483 -0.054231614 -0.044612594 0.04268632 -0.011373341 -0.0008220373 0.013952739 0.11622508
0.00867563 0.080122605 -0.017014861 -0.0096905185 0.009625646 0.07508575 0.10127504 -0.018227559
0.05509052 0.032895766 0.1040401 0.038459625 -0.028356344 0.079193935 -0.07458896 0.11916565
0.013287091 -0.026453245 0.12106786 0.08575267 0.030386658 -0.047412474 -0.04503726 0.040577665
0.04493321 0.06662973 -0.030343115 0.004898606 0.08875696 -0.022465525 -0.010301782 0.0019806433
0.12075616 -0.020814573 0.04997303 -0.002394452 0.0032783337 -0.08562106 -0.09164116 0.021632688
0.052990627 0.016740609 -0.060510155 0.17561314 -0.04750726 0.03339534 0.023988679 -0.036463186
00000000: 53af 913d 745a 92bd 7364 823d a8dc c1bd
00000010: 8ef4 923d 19a9 2abd 9f35 113c 761f f5bc
00000020: 0f2a 5dbd 598e 493d 2de3 dc3c 2299 333d
00000030: 70ae 75bd c6d1 14bd 8ada 123e 68a0 49bd
00000040: 4ed0 dd3b 231c 553d f0ad 2c3c b794 abbd
00000050: bd89 953a 6b4f 4fbd 9f10 c73c 1132 c439
00000060: 3eef b93d 43de 9d3c 32d5 293d b840 833d
00000070: ff80 40bd 4614 28bd 7b1e f6bc 19fd e1bc
00000080: b124 a33d 4b0b 0dbd 8da5 583d d861 913c
00000090: ac6c 8abd 2a9f ef3b aeb2 00bd 0ca9 77bd
000000a0: 2c76 7c3d 4f54 653d af13 063d 32aa acbc
000000b0: f431 71bd 1036 843d 0696 2a3d fe11 4dbb
000000c0: 2d3a f73b 6273 1d3d 619a 923d 5a69 d43c
000000d0: 9c8b c4bc 6bc6 453d c460 90bd e8b6 143d
000000e0: 014c da3d 353d b2bc 146e 583d c07e 593d
000000f0: 9543 6fbc ece8 093d a3eb 26bd b8c7 9b3d
00000100: ea74 07bb 9fce 48bc 095f 6d3d ee13 5d3d
00000110: ca42 4c3d 3855 373d bb01 473d 3fc4 ae3c
00000120: 84a0 9bbd febb b13c 8ab9 8a3d 4eed fdbd
00000130: 5028 323d 576d d63c 3b4f db3b f6c1 853b
00000140: f03f 663d 0e7c 93bd 698b 31bd 65b7 2f3d
00000150: 10c0 0d3d 65ac 05bb e568 2a3e a8d9 883d
00000160: 09e4 0a3e 0217 1abd e0be 603c b8f2 99bd
00000170: 5752 5b3c ed7d 023e 4a70 063d 55f5 4c3c
00000180: d584 b13b a064 72bd 4b71 e43b 9eb2 323d
00000190: 8ab4 623d f209 d6bc 526f 173b 2073 073d
000001a0: 5830 ec3d 0d15 01be ba26 c6bc 8aa9 f8bc
000001b0: 7f1f 3dba 20fe 38bd e6bd 2fbd b367 9d3d
000001c0: 1c0f 4f3d 4817 573c 6450 09bd 523e 603d
000001d0: 8d5f ad3d a50d 8ebc ea1c 43bd 6c7d d6bc
000001e0: 546c 0b3d 9c2a efbc 6cc0 20bd e421 74bd
000001f0: 611a 8ebd 4986 32bd a2a9 0c3c 71b6 6c3d
00000200: ce96 c83a db95 78bc 7d5b 063d 0af4 26bd
00000210: bb0d 3fbc 4dde 6b3d 41b0 b73c 86fa 373d
00000220: 6d43 febc cc5d 8abc 9098 3fbd ccdb 1f3e
00000230: b1a8 a63c 8ce4 b5bd a5f6 433c d3b6 be3b
00000240: f926 de3c fb8f d33c 7049 9ebd ee1e 1c3d
00000250: 5b54 5f3d 47a5 35bc 2959 d3bc 1835 a43c
00000260: b04f b73d 28ff 253e e907 16bd 55de 293c
00000270: ecb8 2fbd 89cb 203d f893 8b3d ec04 3abd
00000280: 1f52 96bd 57ac a8bd bf49 3abd 3264 33bc
00000290: 555c aebc d51d cdbd a62e 9e3d 5152 b8bc
000002a0: 273c adb9 d43d 55bd 7fa9 a1bc 7a0f 01bd
000002b0: 3939 533d d8dd d43d fcfb d0bc bd6d 47bd
000002c0: f3fb 96bd fddb b63d d8d9 64bd a2d9 14bd
000002d0: b79e 9dbd b271 063d 41ac 043c d051 a73d
000002e0: 08ec b13d 7362 6e3b 5f7b 04bd 0fe4 113d
000002f0: 5539 3e3d 1f01 093e 7638 193e fa1f 103d
00000300: df73 62bd 9485 fabc f5ca 2cbd 46ef 5d3d
00000310: 91ae a7bd c61e 2a3d f36c 39bd 43de 513d
00000320: aa12 323d f821 5ebd b2bb 36bd dad7 2e3d
00000330: 4057 3abc fd7d 57ba 079a 643c 6a07 ee3d
00000340: 3b24 0e3c 5217 a43d c062 8bbc fbc4 1ebc
00000350: e3b4 1d3c 8fc6 993d 4a69 cf3d f651 95bc
00000360: 99a6 613d b6bd 063d fa12 d53d d787 1d3d
00000370: 904b e8bc 6e30 a23d 19c2 98bd 1f0d f43d
00000380: 19b2 593c 7ab4 d8bc 6df2 f73d 199f af3d
00000390: 71ed f83c 9533 42bd fd78 38bd c434 263d
000003a0: e30b 383d 2b75 883d 2092 f8bc 7c84 a03b
000003b0: 36c6 b53d 9f09 b8bc cec8 28bc aecd 013b
000003c0: 014f f73d 5383 aabc 85b0 4c3d 3dec 1cbb
000003d0: 50d9 563b 185a afbd 5cae bbbd 0937 b13c
000003e0: b30c 593d 9a23 893c 7fd9 77bd eed3 333e
000003f0: f996 42bd 8dc9 083d e883 c43c 6c5a 15bd

bias f4 [256]
0.033990026 0.08495116 -0.007531886 0.094336405 -0.018697606 -0.008856699 0.06293873 0.041247673
-0.01122602 0.042882837 0.07549005 0.06215465 0.06772441 -0.02283155 -0.06132833 -0.037716504
0.0029780392 0.08834558 -0.034723565 0.04285971 0.019797526 0.025087865 0.018757304 -0.0014579762
0.0184206 0.04199713 -0.019932253 0.053278983 -0.07923434 -0.031853694 0.007999804 0.06227125
0.028782887 0.025771637 0.06341713 0.015959147 -0.010393529 -0.039939523 0.007321734 0.02586711
-0.016966106 0.03607714 -0.033973787 -0.01974123 0.0035979347 0.006847772 0.042990267 0.094889455
0.02949413 0.09016599 0.07707837 0.0716602 0.023589024 0.02293778 -0.013187364 0.07666486
0.011249455 0.0058081094 0.047911823 0.010487615 -0.016982831 -0.02144637 0.07440104 0.080309644
-0.018054133 0.0068143187 -0.03457351 0.030056354 0.018758569 0.064450905 -0.030500306 0.015178062
0.02197364 0.00065847265 0.022225369 0.016856859 0.0022024575 0.062260713 0.027779689 0.018977502
-0.0600619 0.051125806 0.11778755 0.08165439 0.022064487 0.07265337 0.02796409 0.06330753
-0.016972521 0.032062665 0.0016805535 0.020351043 -0.041149054 -0.011250173 0.07152578 0.06349325
0.09885641 0.08483829 0.06042015 -0.029252084 0.03535327 -0.021668602 0.04352436 -0.03541713
-0.0048991065 0.033563197 0.004778836 0.021705957 -0.036587648 -0.017825902 -0.05457469 0.021730902
-0.014039744 0.063908294 0.05252824 0.08342597 0.008705106 -0.06546989 0.09919737 0.08016369
-0.008616058 -0.005254372 0.10128601 0.00080775796 -0.030271808 0.03384749 0.050052356 0.01651137
0.036713697 0.015846318 0.06989858 -0.07098713 0.010381123 -0.0657748 -0.027465763 0.010033167
0.079755485 0.030328108 -0.012964086 0.022767121 -0.06961455 0.0018728431 0.056018837 0.043692514
-0.0043407995 0.034645505 -0.020106353 0.041286036 0.036383647 -0.03521172 0.03266261 -0.018922618
-0.060901534 -0.02121279 -0.055520557 -0.0713735 0.032801434 0.06796045 0.014378563 0.10281928
0.06367291 0.04015909 -0.0072114835 -0.04256712 0.026815731 -0.04881187 0.058659155 0.03416768
0.039986365 0.05132966 0.050295644 -0.017816635 -0.0639021 0.014116939 0.074126095 0.018468821
-0.01325877 -0.004897313 -0.022272827 0.00014991077 0.033954993 -0.0069406633 -0.012036724 -0.06310429
0.06293576 0.07011703 -0.008458127 0.037994444 0.023611322 0.030575048 0.089125246 0.026078258
0.062907964 0.054152764 0.060518894 0.026689766 -0.018484307 0.006623115 0.012509392 -0.041643508
0.006200447 -0.033670057 0.021803062 0.017184796 0.0016587259 0.04230739 0.07122532 0.048144333
0.09612645 0.027038237 -0.042815875 0.008205635 0.020552514 0.042955846 -0.040854402 -0.048959147
0.06749114 -0.05259799 0.058141045 -0.05451116 -0.0037334957 -0.02496082 -0.015570937 0.036462784
0.049472194 0.0698317 0.047023904 0.029863607 0.05517278 -0.04104501 0.0071860035 -0.0069811856
-0.009228586 -0.046693712 0.04670483 0.05897371 -0.014229674 0.00086021115 0.0046329945 -0.040644996
0.043503776 0.0013496011 -0.027573789 -0.0067107594 -0.041399702 -0.06816988 -0.053634323 0.06517208
0.0053362977 -0.017963625 -0.022414532 -0.038182456 -0.086131506 -0.0004923371 0.086809754 0.043908507
00000000: 2039 0b3d e0fa ad3d 0ace f6bb 7233 c13d
00000010: b92b 99bc b01b 11bc 05e6 803d 52f3 283d
00000020: 57ed 37bc eaa5 2f3d 879a 9a3d e095 7e3d
00000030: 18b3 8a3d 3b09 bbbc 6a33 7bbd 9f7c 1abd
00000040: 352b 433b 87ee b43d 4c3a 0ebd aa8d 2f3d
00000050: 6c2e a23c 1185 cd3c eba8 993c 9019 bfba
00000060: cce6 963c 2f05 2c3d f748 a3bc 103b 5a3d
00000070: 9d45 a2bd 0579 02bd 9c11 033c 2310 7f3d
00000080: 17ca eb3c 0a1f d33c d7e0 813d c2bc 823c
00000090: 9f49 2abc a097 23bd 28eb ef3b 43e7 d33c
000000a0: 81fc 8abc a0c5 133d 1928 0bbd 5cb8 a1bc
000000b0: 54cb 6b3b 4663 e03b 9016 303d 6755 c23d
000000c0: ac9d f13c f2a8 b83d 44db 9d3d 95c2 923d
000000d0: c53d c13c 03e8 bb3c d00f 58bc 7702 9d3d
000000e0: a24f 383c f451 be3b 303f 443d 3fd4 2b3c
000000f0: 941f 8bbc 4cb0 afbc 935f 983d 6279 a43d
00000100: 43e6 93bc a64a df3b f49c 0dbd be38 f63c
00000110: 92ab 993c d6fe 833d c7db f9bc 68ad 783c
00000120: 1002 b43c 5a9d 2c3a fa11 b63c 6517 8a3c
00000130: 1b57 103b 1705 7f3d 3b92 e33c b576 9b3c
00000140: 7803 76bd 4b69 513d 993a f13d 6b3a a73d
00000150: 95c0 b43c 4acb 943d f314 e53c 61a7 813d
00000160: f509 8bbc 2454 033d 0546 dc3a 3bb7 a63c
00000170: e98b 28bd a552 38bc 1c7c 923d c008 823d
00000180: 3b75 ca3d b3bf ad3d 1f7b 773d 11a2 efbc
00000190: 97ce 103d 5a82 b1bc 9946 323d 8d11 11bd
000001a0: af88 a0bb 9079 093d c897 9c3b b1d0 b13c
000001b0: eedc 15bd a007 92bc b689 5fbd 0105 b23c
000001c0: f406 66bc 5ae2 823d da27 573d 3cdb aa3d
000001d0: dc9f 0e3c 1415 86bd fe27 cb3d dc2c a43d
000001e0: 5e2a 0dbc de2c acbb 0a6f cf3d b8bf 533a
000001f0: 95fc f7bc aaa3 0a3d b303 4d3d da42 873c
00000200: 1a61 163d 23d0 813c fd26 8f3d b361 91bd
00000210: 9615 2a3c f0b4 86bd e1ff e0bc 2762 243c
00000220: d856 a33d a772 f83c 5167 54bc 1d82 ba3c
00000230: 1392 8ebd 307a f53a 0274 653d ecf6 323d
00000240: 443d 8ebb 72e8 0d3d 14b6 a4bc 8c1b 293d
00000250: 0507 153d 2a3a 10bd 3bc9 053d 9b03 9bbc
00000260: e373 79bd 72c6 adbc 8669 63bd 452c 92bd
00000270: cc5a 063d d92e 8b3d 1094 6b3c ea92 d23d
00000280: f166 823d dc7d 243d 4f4e ecbb dc5a 2ebd
00000290: aaac db3c f5ee 47bd 9544 703d 69f3 0b3d
000002a0: bec8 233d 0d3f 523d ce02 4e3d 31f4 91bc
000002b0: 1bdf 82bd bc4a 673c 6ccf 973d ed4b 973c
000002c0: 503b 59bc a479 a0bb 8175 b6bc 5e31 1d39
000002d0: 6414 0b3d 816e e3bb ae35 45bc d23c 81bd
000002e0: 77e4 803d 8499 8f3d f593 0abc 10a0 1b3d
000002f0: 886c c13c 8678 fa3c 4c87 b63d 12a2 d53c
00000300: e4d5 803d 4acf 5d3d a9e2 773d 7fa4 da3c
00000310: 676c 97bc b706 d93b 31f4 4c3c 6292 2abd
00000320: 1f2d cb3b 9de9 09bd 569c b23c 21c7 8c3c
00000330: 9b69 d93a 844a 2d3d 95de 913d fe32 453d
00000340: f2dd c43d 4b7f dd3c b35f 2fbd ed70 063c
00000350: bf5d a83c 78f2 2f3d f256 27bd 6389 48bd
00000360: cb38 8a3d fd70 57bd 4e25 6e3d 1847 5fbd
00000370: aaad 74bb a27a ccbc 3e1d 7fbc 005a 153d
00000380: 5ba3 4a3d ec03 8f3d 239c 403d 86a4 f43c
00000390: dafc 613d d01e 28bd 9178 eb3b 6ec2 e4bb
000003a0: 7f33 17bc e841 3fbd 904d 3f3d 6b8e 713d
000003b0: 9423 69bc cb7f 613a 60d0 973b 5e7b 26bd
000003c0: 0431 323d 19e5 b03a 6de2 e1bc eee5 dbbb
000003d0: bc92 29bd a69c 8bbd aaaf 5bbd f178 853d
000003e0: 1cdc ae3b 7428 93bc ae9e b7bc 3565 1cbd
000003f0: b765 b0bd 2f10 01ba 50c9 b13d 68d9 333d
