mnist.pt (torch, 440065 bytes, 12 tensors)

weight f4 [16, 1, 3, 3]
000000 59 ad fd bd c8 69 d0 3e 73 8d ab 3e c7 00 7c be
       -0.12386579 0.40705705 0.33506355 -0.24609672
000010 f8 c8 92 be 0e 38 4a 3e 1d f7 96 be c0 07 af 3c
       -0.28668952 0.19747946 -0.29485407 0.021366
000020 83 d1 f6 be 8c 44 3c 3e 41 bb d5 bc ad a0 8b 3d
       -0.4820672 0.18385524 -0.026090266 0.06817756
000030 44 80 6d be 51 aa 02 3e 32 8a e9 3e d0 69 fb be
       -0.2319346 0.12760283 0.45613247 -0.49104166
000040 c2 05 51 be 1b 35 c4 3e 8d 72 74 bd d5 8f 8f bd
       -0.20412353 0.38321766 -0.059679557 -0.07009856
000050 d4 ca 2d 3e b3 5e 7a 3d 6d 34 9c be e4 9c 6c 3e
       0.16971904 0.06112547 -0.30508748 0.23106724
000060 38 0f 84 3e 54 ac 8c be 27 40 74 3e 68 12 7d be
       0.2579286 -0.27475226 0.23852597 -0.24714053
000070 b1 0f 95 be f5 44 5a be 45 fa 5e be ef e9 b8 bd
       -0.29113534 -0.21315368 -0.21775158 -0.09028994
000080 bd 51 bc 3e 16 2a b8 be 82 23 22 3e 4d 70 46 3c
       0.3678111 -0.3596961 0.15833858 0.0121117355
000090 c9 14 cb 3e 1d ff 14 3d d5 19 2d 3e 5e 97 e1 3e
       0.39664295 0.036376107 0.16904385 0.44060796
0000a0 ab 87 9c bd 27 42 8b be c1 c0 3f 3c 6d bd 5c be
       -0.07643064 -0.27198908 0.011703671 -0.21556635
0000b0 83 7d fe be 8a f2 b1 3e 61 65 b5 3e 6b cf 80 3e
       -0.49705133 0.34755355 0.35428908 0.25158247
0000c0 da 6f b5 3e 6a 1c 86 bc fb 29 aa 3d 99 97 20 be
       0.35436898 -0.01637097 0.083087884 -0.1568283
0000d0 36 75 f2 bd 5a e5 06 3e e2 3b e1 3c bc 34 97 3e
       -0.118387625 0.13173428 0.027494375 0.2953242
0000e0 cd 28 83 be 5c 05 e7 bd bc 85 87 3e fa 73 a7 3d
       -0.25617066 -0.11280319 0.2646922 0.08176418
0000f0 ab 95 85 3e c6 05 bf 3e d8 7b b8 3d 51 f0 a1 be
       0.2609075 0.37309092 0.09007996 -0.3162866
000100 e7 aa 5b be 7a cc 71 3e 37 54 32 be 2d cd 3a 3e
       -0.21451913 0.23613158 -0.17414938 0.18242331
000110 94 7f 4a 3e dd c4 c6 3e 1e 8f 72 3d 14 3e 8c 3e
       0.1977523 0.3882207 0.05921852 0.27391112
000120 88 2d 00 be f4 fd 94 be f2 19 95 be 93 94 96 3e
       -0.12517369 -0.291 -0.29121357 0.29410228
000130 41 d5 3a 3c 92 18 c6 be 09 92 36 3e eb 93 ac 3e
       0.011403383 -0.3869062 0.17829145 0.33706602
000140 81 1d cd 3e 2f 36 f6 bd e8 ed ae be 96 ca 64 be
       0.40061572 -0.120220535 -0.34165883 -0.22342905
000150 10 bb a1 be d4 98 5d 3e 18 98 8a 3c 97 71 8c 3e
       -0.3158803 0.2164033 0.016918227 0.27430412
000160 8f be 25 3e 6d cd 89 3e a3 5d 5d 3e 81 ca 6f 3e
       0.16185974 0.2691454 0.21617751 0.23417093
000170 42 ff 09 3e ab b2 db 3d 55 03 69 be 00 0c 0d 3e
       0.1347628 0.107274376 -0.22755177 0.13774109
000180 e5 1c 95 3d 43 54 a1 3c cb 63 92 3e c9 54 c1 bd
       0.07280902 0.0196935 0.2859176 -0.094399996
000190 9b 1f 97 be c7 62 62 be f8 ed 91 bd 7e cb a0 be
       -0.295163 -0.22107993 -0.07125467 -0.31405252
0001a0 ab dd 21 3d 29 9b a1 be 56 b3 17 be 29 4b 28 3e
       0.03951804 -0.3156369 -0.14814505 0.16434921
0001b0 c0 f4 dd 3d 0b 0e 13 bd 66 76 dc bd 10 b0 c8 bd
       0.10837698 -0.035902064 -0.1076477 -0.09799206
0001c0 66 54 6c be 3c 17 8c be c8 b5 25 3e 82 d4 98 be
       -0.2307907 -0.27361476 0.16182625 -0.2984963
0001d0 96 1c 6a bd 2e 12 e1 be bb d8 aa be cc f7 95 be
       -0.057156168 -0.43959183 -0.33368477 -0.29290617
0001e0 cf 59 58 be 77 aa 33 3e 8d 0c 3b be 4d 3f 01 3d
       -0.2112801 0.17545496 -0.18266506 0.03155451
0001f0 41 2c 82 3e fe 94 d5 3e 2e 09 9e be 9a a9 09 bf
       0.25424388 0.41715235 -0.3086638 -0.53774416
000200 03 1b 38 be 09 e7 04 bf 6f 1a 82 3e c5 39 27 3d
       -0.17979054 -0.5191503 0.25410792 0.040826578
000210 c2 94 20 be f8 db 29 be c0 d2 dc 3e a0 88 5d bd
       -0.15681747 -0.16587818 0.4312954 -0.054085374
000220 28 45 0e be 26 71 d0 bd 9b 80 29 be bb a8 27 be
       -0.13893569 -0.10177831 -0.16552965 -0.1637296
000230 7f f0 a4 be eb 88 a6 3c 0b df 4d 3e 40 5b 8f be
       -0.32214734 0.02032896 0.20104615 -0.27999306

bias f4 [16]
000000 fa 58 79 3d db ff fe bd 51 3a 28 be 87 7b fb 38
       0.06087587 -0.12451144 -0.16428496 0.000119916214
000010 c9 43 5a 3c 65 c5 80 3b 93 6d 11 be 56 75 46 3e
       0.013321825 0.0039297813 -0.14201955 0.19380698
000020 ff a7 c8 b9 a4 7e 1b be 93 4b 5c 3e 8a 35 c3 3e
       -0.0003827214 -0.15185028 0.21513204 0.38126785
000030 57 a3 a4 be 31 ef e6 bd b6 40 ed b8 00 2c 95 be
       -0.32155868 -0.11276091 -0.00011313094 -0.29135132

weight f4 [32, 16, 3, 3]
000000 2d 40 7e bc 1d be b4 3c 02 9e 03 3e 45 a5 ec bc
       -0.01551823 0.02206331 0.12853244 -0.0288874
000010 8e 98 67 bd f9 f5 15 bd 5a 02 6d be 22 d5 86 be
       -0.05654197 -0.03661153 -0.23145428 -0.26334482
000020 51 3c 4e be 72 8a b3 bd 21 ba 09 3e 3b 5d 45 3e
       -0.20140196 -0.08766641 0.13449909 0.19273846
000030 ae a9 7f 3d ca fb e6 3d ee 47 4a 3e 2d cc 99 bd
       0.06241768 0.11278494 0.19754001 -0.075096466
000040 b3 63 74 bd 64 30 0d 3e 11 65 60 bd 84 f4 1a be
       -0.059665393 0.13787991 -0.054783884 -0.15132338
000050 ff fa c3 3c 55 d0 06 bd a9 5b 08 3d d5 c1 69 3d
       0.023923395 -0.032913525 0.03329054 0.05706962
000060 d0 a9 30 3d 90 ca 18 bb 03 4b 29 3e 5a e4 78 bd
       0.043130696 -0.0023314096 0.16532521 -0.060764648
000070 bc e8 5d bd e3 33 9f 3d 0a 49 d2 3d 70 62 0c bd
       -0.05417703 0.077735685 0.10267837 -0.034273565
000080 86 ec 98 3c 5e 04 ef 3d d6 f8 19 3e 58 7d b2 3d
       0.01866747 0.11670755 0.1503633 0.08715314
000090 67 2c 14 3e bb 09 16 3e 5c 46 c0 bd c9 69 49 3d
       0.14470063 0.1465215 -0.0938842 0.04917315
0000a0 3f be c2 3c 5f c0 e0 bd 77 68 24 3d ef f5 f0 bd
       0.023772357 -0.10974192 0.040138688 -0.11765658
0000b0 dc c0 2b be 7d f9 52 3d e3 14 05 3e 17 45 2c 3e
       -0.16772789 0.05150746 0.12996249 0.1682323
0000c0 6a 18 82 3d 94 32 4b 3d cc e0 05 3e 76 ac 32 bd
       0.06352313 0.049608782 0.13074034 -0.043621503
0000d0 b1 17 27 bd fe 2d be 3c f4 a6 17 3b 7c f1 ba bd
       -0.04079408 0.02321529 0.0023140283 -0.09128091
0000e0 62 f8 76 3d 18 b8 06 be 31 10 b9 3c c1 0c 0b 3e
       0.06029547 -0.13156164 0.022590728 0.13579084
0000f0 12 82 81 bd 63 ff 28 3d 71 75 d9 3d fb 8f cc bc
       -0.06323637 0.04125918 0.10618103 -0.024970999
000100 88 5e f2 bb fe 8e e8 3d 66 74 16 bd a3 5d 02 3d
       -0.007396523 0.113553986 -0.0367321 0.03182758
000110 54 1b 58 3e ab 74 95 3d a5 96 9e 3d 53 04 4c 3e
       0.21104175 0.07297643 0.07743577 0.19923525
000120 d8 19 e4 bd 8c 83 16 be 93 3b 96 bd 7b 97 3d bd
       -0.11137742 -0.14698619 -0.07335582 -0.04628704
000130 1f f8 cb bd 0d 57 15 be b4 84 89 3d 9a ea 4f 3d
       -0.09959435 -0.14583988 0.06714764 0.050760843
000140 69 87 41 bd 53 7c 05 3e f0 3d 6a bd 97 f0 35 be
       -0.047248278 0.13035707 -0.057187974 -0.17767559
000150 29 8c 42 3e e0 04 d2 3c 84 e4 a3 3b ec fd 2b 3e
       0.1899878 0.02563709 0.0050016064 0.16796082
000160 f0 04 9a 3d 84 9c fd 3a 9b 3a 5f bc 69 f9 79 bd
       0.07520473 0.0019349013 -0.0136248125 -0.06102887
000170 3a d4 bc 3d a4 2e 6b bc 82 15 24 bc d8 13 bf 3c
       0.092201665 -0.014354382 -0.0100148935 0.023324892
000180 c6 19 ec bd 53 77 8d 3d 75 1b fb 3d 93 af 14 be
       -0.115283534 0.06907525 0.122610964 -0.14520101
000190 01 a1 6e bd 0b 4f 3d bc 2c 1d bf 3c 6a 0c 8a 3d
       -0.058259014 -0.01155449 0.02332934 0.06740649
0001a0 6b e7 27 3d 87 c2 87 bb a1 67 25 bd 87 d1 a6 3b
       0.04099218 -0.0041430625 -0.04038203 0.0050908956
0001b0 10 08 cc 3c 2e 7b 12 bd c6 ba e8 bc 3e 9d 96 bd
       0.024906188 -0.035762005 -0.028409373 -0.0735421
0001c0 56 ee 52 3c 16 49 1a 3d 74 f7 9d 3d 73 db 36 bd
       0.0128742065 0.037667356 0.077132136 -0.044642877
0001d0 2b cf 9a 3d 44 46 99 3c 8b 9f 6d 3c 59 83 00 be
       0.075590454 0.018710263 0.01450337 -0.12550105
0001e0 bc a3 80 3d 22 a3 7f 38 42 76 7b bd f7 3e af 3d
       0.0628123 6.0948667e-05 -0.061392076 0.085569315
0001f0 ef 60 e8 3b 22 18 67 bd 68 4e 4d 3c aa dc 8c 3c
       0.0070916335 -0.0564195 0.012530901 0.017195065
000200 dc 9e 10 bd b2 17 93 3c e5 e1 88 bb 7f 43 b9 3d
       -0.03530775 0.017955635 -0.0041773194 0.09046077
000210 d8 53 0e 3e 1c d0 5e 3e 8e c8 01 3e 3b a5 86 3d
       0.13899171 0.21759075 0.12674162 0.06574484
000220 e6 c1 ed 3c c3 d4 5e 3d b6 12 3c 3c e7 73 91 bd
       0.029023122 0.054402124 0.01147907 -0.07102185
000230 56 72 9f 3d ab fd 7f 3b de 60 61 3d 02 16 96 3d
       0.0778548 0.003906111 0.05502402 0.073284164
000240 70 18 8f bc 6b 7b 56 bd b0 a2 c0 bd 64 8b 5d bd
       -0.017467707 -0.052363794 -0.0940603 -0.05408801
000250 da 26 3c bd 07 24 0c be e1 b8 33 bc a9 21 86 bd
       -0.04593549 -0.13685618 -0.010969372 -0.06549389
000260 6a be b1 bd b1 d4 06 bb 31 e1 2c bd 91 76 6c bb
       -0.08678897 -0.0020573551 -0.042206947 -0.0036081413
000270 2f cf 71 3c b2 a9 9e ba e5 a9 08 be 1d 48 58 bd
       0.014758869 -0.0012105017 -0.1334606 -0.052803148
000280 73 0d 3c 3d b8 f0 f7 bd b4 2f c0 bd 50 de e3 bd
       0.045911264 -0.1210646 -0.09384099 -0.11126387
000290 8c 2c c7 3d 39 e8 bf 3d 77 90 42 bc 60 0f ea 3c
       0.097252935 0.09370465 -0.011875263 0.028571784
0002a0 23 c6 c6 3d e0 4d b2 3d 12 f9 75 3b 23 fc f4 b7
       0.0970576 0.0870626 0.003753249 -2.9204477e-05
0002b0 22 d9 8d bc 35 5f a4 3d 48 8a cc bd e9 48 b4 bc
       -0.017315451 0.08025972 -0.099873126 -0.022007423
0002c0 a0 56 ac 3d 52 3f fb 3d 56 17 a0 bd 94 ef 81 bb
       0.0841496 0.12267937 -0.07816951 -0.0039653275
0002d0 4d 6a 9e 3e 6d 82 15 3e 33 b1 fb 3d 54 b3 78 3e
       0.30940476 0.14600535 0.122896574 0.24287158
0002e0 37 27 57 3e 6d 28 9e 3d d7 e7 30 3e 50 a3 4e 3e
       0.21011053 0.07722554 0.1727594 0.20179486
0002f0 26 f7 e3 3c 9c b0 9b 3d fb f1 f4 3d bf ee 3c 3d
       0.02782781 0.07602045 0.119602166 0.046126124
000300 59 48 29 3e 08 74 0f bd 08 d4 ec bd 70 31 f3 3d
       0.16531505 -0.035022765 -0.11563879 0.11874664
000310 8b 82 03 3d 45 e2 fb bd 63 83 41 3e 31 4a ed 3d
       0.032106917 -0.12299017 0.18897776 0.115864165
000320 e2 5d d0 bd 55 85 02 3e 0b 4d db 3d b6 8c ce bd
       -0.10174157 0.12746175 0.10708054 -0.10085432
000330 3e 35 6b 3e 26 6a b5 3d f0 3d bf bd c1 26 3d 3c
       0.22969529 0.08858137 -0.093379855 0.011544884
000340 6f 98 03 be 55 7c 8d bd 8b aa 4b 3d 79 2b 02 be
       -0.12851118 -0.0690848 0.04972319 -0.12711896
000350 38 0b cf bd c0 de 24 bb a1 52 ce 3b b0 1d c2 bc
       -0.10109562 -0.0025157183 0.006296471 -0.023695797
000360 c7 18 e4 bb f0 14 39 bc 5f a3 64 bd c9 f4 04 be
       -0.0069609615 -0.011296496 -0.055819865 -0.12984003
000370 0e a5 d6 bd d4 7a eb bc 4f ec 00 bc 5c 59 09 be
       -0.104807004 -0.028745092 -0.00786884 -0.13412994
000380 bc 4b 1e be e7 50 6a be bf d9 bb be 76 1d 78 be
       -0.15458578 -0.22882424 -0.36689565 -0.24229988
000390 ed c6 5f be 54 fa 61 be 76 e5 97 be d1 b2 cd bd
       -0.21853228 -0.22068149 -0.29667252 -0.10043872
0003a0 ef 1a 32 be 66 40 62 be ce 85 4c 3e 8d 32 d5 3d
       -0.17393087 -0.22094879 0.19972917 0.104100324
0003b0 56 73 cb 3b d0 be e5 3d a2 54 33 3d ac f6 95 bd
       0.0062088175 0.11218035 0.043781884 -0.073224396
0003c0 e6 f4 35 3e 47 7b 75 bc 60 76 cc 3b 50 d8 a6 bd
       0.17769203 -0.014983005 0.0062396973 -0.08146727
0003d0 08 8a bf 3d fc 0c 7e 3d c2 57 41 bd 21 a1 b2 bc
       0.09352499 0.0620241 -0.047202833 -0.021805348
0003e0 75 6c b6 bc b1 91 62 39 a3 72 0a 3d 7c 6b 8a bc
       -0.022268513 0.00021607314 0.033800732 -0.016896956
0003f0 62 ac 98 3d c6 86 25 3d 36 f0 03 bc f6 9a d6 bc
       0.074547544 0.040411733 -0.008052876 -0.026196938

bias f4 [32]
000000 77 59 34 bd 96 4d 23 3d 24 0f 8f bc 94 78 a4 bd
       -0.044030633 0.039868914 -0.017463274 -0.08030811
000010 ee 03 23 3e 9b 1d 9c 3d a4 a1 c2 ba 0f b8 f9 3d
       0.15919468 0.07622834 -0.0014849198 0.121933095
000020 de f7 a2 3c 66 be 91 ba a7 8f 53 3d 09 72 08 3d
       0.019893583 -0.0011119365 0.05165067 0.033311877
000030 02 1b 30 3d a1 4a 3c bd b0 79 94 ba 72 36 b1 3d
       0.042994507 -0.04596961 -0.001132777 0.08652963
000040 80 0d 26 bd 00 6a eb ba f0 97 81 bd 1c 4b 17 bc
       -0.04054022 -0.0017960668 -0.06327808 -0.009234216
000050 dc 87 3a bd 8e ad ba 3e 9e 41 27 bd ce ae 8e bd
       -0.04553972 0.36460537 -0.04083406 -0.06966935
000060 a4 5d fd bc 20 26 e3 3d dc 95 b8 3d e6 02 6d 3d
       -0.03092844 0.11091256 0.090129584 0.057864092
000070 6b c1 c7 bc 0f af 30 bd c9 0b 4d 3d 1c 01 3a bd
       -0.024384221 -0.0431357 0.050060067 -0.045411214

weight f4 [64, 32, 3, 3]
000000 8a a0 1f be e1 85 d4 bd c4 60 c9 bd 66 fd b1 bc
       -0.15588585 -0.10377098 -0.0983291 -0.021727275
000010 bb 43 6d bd 97 0f ba 3b b5 76 95 3d 14 bd f8 3b
       -0.05792592 0.005678128 0.07298032 0.0075908992
000020 02 5e 95 3d e6 11 c0 bd 53 6a 82 bd 03 d3 a6 bc
       0.07293321 -0.09378414 -0.06367936 -0.02036429
000030 2f 69 03 be 64 f0 6f be 6a ce 3c be 7e 09 41 bc
       -0.12833093 -0.23431545 -0.18438116 -0.011782048
000040 e5 f0 6f bd c0 af 49 bd 0d d6 36 be bc ee 13 bd
       -0.058579344 -0.049239874 -0.17855091 -0.036116347
000050 38 a3 e9 3b fb 88 22 3d b9 34 82 bd ba 44 6f bd
       0.007130053 0.039681416 -0.06357712 -0.058415152
000060 68 71 18 3d 6f 7f 2f 3d 99 0a fc 3d 2d f5 06 be
       0.037217528 0.04284614 0.12306709 -0.13179465
000070 e0 3a 2d be a7 52 ab bd 01 4b 02 3d a7 8d 44 bd
       -0.1691699 -0.08365374 0.03180981 -0.047986653
000080 c8 58 6a bd e8 1e a9 3d e9 0c 31 3d 63 97 9f 3d
       -0.057213575 0.08257848 0.043225203 0.077925466
000090 d2 ba 6b be 62 cd 86 be 49 1f 25 be e2 14 8b bc
       -0.23020485 -0.2632857 -0.16125216 -0.016977731
0000a0 1a 61 27 bc 10 b9 db bc b0 18 71 3b f1 2b 4d bd
       -0.010216022 -0.026821643 0.0036788397 -0.050090734
0000b0 9e 1d 99 bd 96 ba 8f be af dd 4f be ae bf 8e be
       -0.07476352 -0.2807204 -0.2029941 -0.27880615
0000c0 5d 76 2e 3d 02 e2 ac 3b d3 d7 c8 3d 9c 2d 23 bc
       0.04259335 0.0052759657 0.0980679 -0.009959605
0000d0 96 44 be 3c e6 3a 29 3d c5 b2 93 bd 1e 7e 02 bc
       0.023226064 0.041315936 -0.07211832 -0.007964639
0000e0 97 cb 1b bd 08 32 ea bc 1a 0c 83 3d 99 77 0f bd
       -0.038035955 -0.02858831 0.063987926 -0.035026167
0000f0 79 cf cf 3d 91 e3 db 3d da c9 0d 3e 90 c5 8a be
       0.10146994 0.10736764 0.13846532 -0.27103853
000100 79 a2 3c be a0 98 76 be 9f 21 fc 3b 85 43 bd bd
       -0.18421353 -0.2408166 0.0076944376 -0.09241394
000110 c6 c3 07 bd 3d 0e 3e 3d 82 78 4c bd 8c 8a e2 3b
       -0.03314569 0.046400297 -0.049919613 0.0069134887
000120 45 28 d3 bd 6f 90 46 bd 06 2d 86 bc c3 42 41 3d
       -0.10310415 -0.048477586 -0.01637889 0.04718281
000130 3f ec 0a 3d fd 21 94 bc 50 81 01 3e 8a 80 80 3d
       0.033916708 -0.018082613 0.12646985 0.06274517
000140 db bc a7 3d 96 19 aa bd cf 45 a8 bd 4c 7b 00 be
       0.08190318 -0.083056614 -0.0821644 -0.12547034
000150 6f 71 24 3d dd 7c d2 bc 3f e9 87 bd 2d 5b 8b 3d
       0.04014724 -0.025694305 -0.06636285 0.068045
000160 16 66 ad 3b 3d 5e d2 3d 7e 8f 1f be 72 cd 0e be
       0.0052917106 0.10271881 -0.15582082 -0.13945559
000170 12 79 e8 bd 5d b9 d0 bc d2 60 fa bc 24 db 5d bd
       -0.11351217 -0.025479013 -0.030563746 -0.054164067
000180 9b 27 1d bd f7 d2 a4 3c e6 c1 18 bd 53 0c 46 be
       -0.03836785 0.020120127 -0.03729429 -0.19340639
000190 34 e9 61 be fd 0b 10 be 31 b5 1c 3d 90 6a 06 bd
       -0.22061616 -0.14067073 0.038258735 -0.03281647
0001a0 c3 32 79 bc aa 5c 15 3b 31 89 2e 3d 48 d2 43 3c
       -0.015209856 0.0022790828 0.042611305 0.01195199
0001b0 df 07 23 be cb 7f 5a be 1b 76 63 be 62 cf 10 3d
       -0.15920971 -0.21337812 -0.22213022 0.035354026
0001c0 5c c3 08 bd f7 5a f6 bb 77 8b 09 3d 6d e0 10 bd
       -0.033389434 -0.007518168 0.03358027 -0.03537028
0001d0 86 cd c7 bc 80 9e 11 bd 2a 60 73 bd ee 19 d0 bc
       -0.024389993 -0.035551548 -0.05941788 -0.02540299
0001e0 1e 9f 8a 3d 57 b5 8b 3d 34 b7 da 3c 89 c8 93 3d
       0.067686304 0.06821697 0.026698686 0.072159834
0001f0 b7 35 37 3d d4 f9 07 3e 17 47 30 bd 00 36 4b bd
       0.04472896 0.13278896 -0.043036547 -0.049612045
000200 a2 97 06 bd 75 c3 16 bd ed 83 5a 3b c6 63 73 3c
       -0.032859452 -0.036807496 0.0033342794 0.014855331
000210 ed 9c 81 3c 4a 8e 14 3d ed fe 34 bd 39 2a 3f be
       0.015821898 0.03626851 -0.04418843 -0.1866845
000220 1d 6b 5e be e6 d8 5f be 76 0d 92 3d b6 a4 ad 3d
       -0.21720548 -0.21860084 0.07131474 0.08478682
000230 ca c5 86 3d 9f fa 7b 3d 5c 80 7d 3c 55 6d c0 3d
       0.06580694 0.061518308 0.015472498 0.093958534
000240 72 b3 c4 bd f0 c9 ca bd 12 2d 7f bd 3c 6c 41 bd
       -0.09604539 -0.09901798 -0.06229884 -0.04722236
000250 e8 18 25 bd 92 b5 99 bc 08 7a df 3a 3e fe 5c bd
       -0.040306956 -0.018763337 0.0017049918 -0.0539534
000260 fc 38 b0 3c 56 2b e0 bd e9 14 7b bc ed fc 54 bc
       0.021511547 -0.10945766 -0.01532481 -0.012999755
000270 76 11 17 3d 64 87 8a 3d 3e 06 e0 bd 2c 87 61 3d
       0.036881886 0.06764105 -0.109386906 0.05506055
000280 98 9a c8 3d 8a 0e 4b 3d 52 d4 2c 3c cb 2f 41 bd
       0.097951114 0.049574412 0.010548668 -0.04716472
000290 cb a9 19 3c cc ae 62 3d d2 d6 80 3b bf d6 6f bd
       0.009378861 0.05534248 0.0039318586 -0.058554407
0002a0 19 7e 3b bd ec 9c a8 bb b5 60 10 3c 93 a6 0f 3d
       -0.045774553 -0.0051456597 0.008812119 0.035070967
0002b0 f5 b8 fd 3c d1 74 83 bc 79 93 c8 3c ae 07 6b 3d
       0.030971983 -0.016046913 0.024484383 0.05738037
0002c0 24 be 6d bd 0d 62 ad bc 45 11 17 bd 59 74 45 3d
       -0.05804266 -0.021164918 -0.036881704 0.04820666
0002d0 05 f3 2a be 12 ce 3f be c7 f0 0d be 5d c7 83 bd
       -0.16694267 -0.18730953 -0.1386138 -0.0643451
0002e0 56 a1 9a bd 09 a3 54 bd df 25 e4 3c 66 e6 53 bc
       -0.07550304 -0.051913295 0.02785009 -0.012933349
0002f0 02 63 03 3e 61 c6 75 be e8 f8 4e be 1e 9f 74 be
       0.12830737 -0.24001457 -0.20212138 -0.23888823
000300 2c 0c 1e bc ab 36 52 bd 87 98 18 3c 86 4f 6e bd
       -0.009646457 -0.051321667 0.009313709 -0.05818131
000310 7b 12 d3 bd e7 82 5c bd a0 9c 68 bd 86 06 b2 bd
       -0.10306259 -0.053835776 -0.056789994 -0.086926505
000320 c4 ba ce bd 47 f6 7c bd e4 75 21 3a d0 c8 72 bd
       -0.100942165 -0.061758306 0.00061592297 -0.05927354
000330 d1 3e 08 3e 02 d1 15 3e d9 5c de 3d 57 0a d6 bd
       0.13305213 0.14630511 0.10857553 -0.10451191
000340 fc f4 0a be ca 15 1a be d1 bd 4f bb ce c2 4d bd
       -0.13570017 -0.15047374 -0.0031698833 -0.05023461
000350 75 1c 25 bd 71 f0 c0 3c 43 04 93 bd 3a f4 31 bc
       -0.040310342 0.023552151 -0.07178547 -0.010861451
000360 cd 19 24 be 28 02 c0 bd ad d3 d2 bd 5b e8 68 bd
       -0.16025467 -0.09375411 -0.1029428 -0.056862216
000370 33 38 2f 3c 60 f1 9f bc 8a 36 9b 3d 9c b9 0f 3d
       0.010694551 -0.019524276 0.07578762 0.03508912
000380 08 1d a8 3d 8b cb 60 be 29 5f 8a be 35 68 53 be
       0.08208662 -0.21952645 -0.27025726 -0.2064522
000390 4f eb 21 bd 73 5f 0b bd 46 75 ab 3c 35 6a 6e bc
       -0.03953105 -0.034026574 0.020929944 -0.014551689
0003a0 ab 5e 7e bc d9 a1 ce 3b 0a 43 d3 bd 99 5a 66 bd
       -0.0155255 0.006305915 -0.10315521 -0.056238744
0003b0 40 8a d6 bc 28 37 00 3d d1 fc 59 3c 82 91 a3 bc
       -0.02618897 0.0313026 0.013304905 -0.019966844
0003c0 69 5f 31 3c ed 8c 08 3e 07 fb 1f 3e 50 71 b6 bd
       0.01082597 0.13335009 0.15623103 -0.089083314
0003d0 64 9f 6d bd 4f 49 e3 bd 0a 91 78 3d f7 6f ff 3d
       -0.058013335 -0.11097967 0.060685195 0.124725275
0003e0 30 01 65 3d b8 f6 4c 3d 68 8b ff 3d 79 0c 8e 3d
       0.055909336 0.050039977 0.124777615 0.06935973
0003f0 ec 5c 8c bd 67 b7 c5 bd 43 f3 34 bd dc 26 8e 3d
       -0.06853661 -0.09654122 -0.044177305 0.069410056

bias f4 [64]
000000 c4 9a 1a 3b 91 09 80 3b 4e 69 9a bd ba 8b 7e 3d
       0.0023590783 0.0039073904 -0.075396165 0.062144972
000010 ab 1e 34 bc 56 51 7d bb d9 6f 5a bd 2a c9 84 bd
       -0.01099364 -0.0038653216 -0.053329322 -0.064836815
000020 15 1f b7 bd e9 de e1 3d 25 5f 00 bd d7 de ef bc
       -0.08941475 0.11028845 -0.031340737 -0.029281063
000030 bb 1a a8 3c fc 11 e3 3d b3 16 ae bc 87 c7 b7 3c
       0.020520559 0.110874146 -0.021251058 0.02243401
000040 a3 0e ef 3d 66 5c d8 3c ef f6 9d 3c 53 72 cd 3d
       0.116727136 0.026411247 0.019282786 0.10031571
000050 5f be 03 bd a2 63 06 3d 63 7b 88 bd 59 d5 08 bd
       -0.032163974 0.03280986 -0.06664159 -0.03340659
000060 d1 55 19 bd ac fc a9 bb d9 49 93 3d 3c eb 6a bd
       -0.037435357 -0.0051875915 0.0719182 -0.057353243
000070 7e e9 c8 bd bd 12 2e bc 71 a1 fc 3b 0e e3 40 bd
       -0.0981016 -0.010624585 0.007709675 -0.047091536
000080 f5 ca 34 3d 80 d8 85 bb 86 99 b1 3d e4 95 0a bb
       0.044138867 -0.0040846467 0.086718604 -0.002114647
000090 b0 21 85 3c 50 74 eb bc 3b 6d 01 bc 50 d2 f9 bd
       0.016251415 -0.028741986 -0.007899578 -0.12198317
0000a0 e0 55 20 bd ef 00 36 3d ba 57 f4 bb 4c 08 b3 3c
       -0.039144397 0.044434484 -0.007456747 0.021854542
0000b0 0b 5c 7a 3c c2 ac 51 3d 7c 8a ea bc 62 c1 0f 3e
       0.015280734 0.051190145 -0.028630488 0.14038613
0000c0 45 a3 0b bd 31 aa d6 bd 4f 12 73 3d 4b 5e b2 3d
       -0.034091253 -0.1048168 0.059343632 0.08709391
0000d0 b0 1a 25 bd 49 fb 52 3d c8 9c 51 bd 17 31 f1 bc
       -0.040308654 0.051509175 -0.05117491 -0.029442353
0000e0 e3 69 67 bd 7f 5e e6 bc d9 29 d2 bc 50 5b 84 39
       -0.056497466 -0.028121231 -0.02565472 0.00025245035
0000f0 20 81 12 3d 91 02 1c bb 53 b0 20 bd 97 7c 3c bd
       0.035767674 -0.002380524 -0.039230656 -0.046017256

weight f4 [256, 64]
000000 ab 75 bc bd f9 7a 89 3c a8 5f 89 bd 85 5d 8c bd
       -0.09202131 0.01678227 -0.06707698 -0.06853775
000010 68 39 03 3e fa f3 d8 3d 91 e8 43 3d 11 e7 99 bd
       0.12814867 0.1059341 0.047829214 -0.075147755
000020 9f 43 84 3c b0 c9 8e 3d d2 36 cb bd 84 f7 80 3d
       0.016145526 0.069720626 -0.099225655 0.0629721
000030 f3 13 23 3d 4e cb db 3b 97 83 32 3d 75 0c 22 3e
       0.039813947 0.0067075854 0.043582525 0.15825064
000040 f0 df a1 3d d1 a3 e4 3d 81 41 a6 bd 25 2e 69 3d
       0.07904041 0.11164058 -0.08117963 0.056928772
000050 d7 85 5f bd a9 75 00 3e 7c db 06 3d 79 ca 85 bd
       -0.054571 0.12544884 0.03292416 -0.06532759
000060 93 79 87 3d 98 d9 b5 3d 61 6a af bd 94 84 07 3d
       0.06614985 0.08879393 -0.08565212 0.03308542
000070 f8 21 b6 3d 6e ec ac 3a fe 84 03 b9 c6 d0 c9 3d
       0.08893198 0.001319302 -0.00012542677 0.098542735
000080 64 e4 be bc c4 79 8b bd c1 7e a1 3d db 3d 3c 3d
       -0.023302265 -0.06810334 0.078855045 0.045957427
000090 05 81 13 bd 27 11 8a bd 0b e8 d7 bc ea 3f 96 3d
       -0.036011714 -0.06741553 -0.026355764 0.073364094
0000a0 6b cc ec bc cb e1 aa bd 9e a6 1a 3d ac b3 6a 3c
       -0.028906068 -0.08343848 0.037756555 0.014325064
0000b0 e6 71 ec bd b8 a6 a9 bd 8e fe 27 bd 41 62 16 be
       -0.11545162 -0.08283752 -0.041014247 -0.14685918
0000c0 7f 2a 00 3e dc 97 52 bc d5 f2 c8 3a 7c ca df bc
       0.12516211 -0.012853589 0.0015331159 -0.027318232
0000d0 6f 88 6e 3d 17 4d b4 3d b1 f4 dc bd 5b 31 dc bd
       0.058235582 0.08803766 -0.10788859 -0.10751601
0000e0 a0 46 b8 3b 66 19 8f bd dc c4 94 bd 98 76 f4 3c
       0.0056236535 -0.06987266 -0.072641104 0.029841706
0000f0 6e ba e2 3d 3d 9a 78 bd a2 0e 14 bd 45 ed c5 3c
       0.11070715 -0.060693968 -0.036146767 0.02416099
000100 94 96 a3 bc ec d4 f6 bc 3b 9b 98 bd f0 b2 0c 3d
       -0.019969262 -0.030130826 -0.07451483 0.034350336
000110 10 32 78 bd f0 d8 b5 bb 3b 57 fe bd 00 67 66 3a
       -0.06059462 -0.0055495426 -0.12418982 0.0008789152
000120 64 77 da bd b8 6a 78 bc 92 76 09 bd 70 c1 08 3c
       -0.10667303 -0.0151621625 -0.033560343 0.0083469
000130 e4 84 a1 3d 68 37 88 3d 7f 67 d2 bd 09 79 a1 bd
       0.07886675 0.06651193 -0.102736466 -0.07884414
000140 40 51 74 bd 70 51 bf 3c f4 06 38 3d 32 64 46 bd
       -0.0596478 0.023354262 0.044928506 -0.048435397
000150 48 7c 61 3d fc 39 43 bd 9c d5 74 bd 84 04 79 bd
       0.055050164 -0.04766272 -0.059774026 -0.060795322
000160 c4 15 76 bd 9e 83 e9 bd 1e 06 b9 3d f0 6f e7 bc
       -0.06007935 -0.11402057 0.0903437 -0.028251618
000170 0a 4e 87 bd 98 e1 b2 3c a0 9a fb 3b 34 64 8d bc
       -0.06606682 0.021836087 0.007678345 -0.017259695
000180 8e 03 bf 3d 60 11 53 bb 76 f0 72 bd a4 05 b0 bd
       0.0932685 -0.0032206401 -0.059311353 -0.08594826
000190 16 a9 d2 bd f8 82 94 bd 91 d9 ff bd ee f7 a0 3d
       -0.10286157 -0.07251543 -0.124926694 0.07859789
0001a0 a0 32 56 3c 00 c4 05 ba b0 92 61 3d 48 cf 5c bd
       0.013073593 -0.00051027536 0.055071533 -0.053908616
0001b0 02 97 b5 3d 5c b7 06 bd b8 ca 86 3d ca a6 99 bd
       0.08866693 -0.03288971 0.06581634 -0.075025156
0001c0 52 55 6f bd 14 6b 4c bd 84 af 9a bc b2 df e4 3d
       -0.058430977 -0.049906805 -0.01888252 0.11175479
0001d0 98 88 21 3d 20 8f 08 3d f3 ad 9b bd 1d 29 ee bd
       0.039436907 0.03333962 -0.076015376 -0.116289355
0001e0 1e d2 b8 bd d4 0d a2 bc 10 f9 89 bd e0 6a f2 3d
       -0.09024452 -0.019781984 -0.06736958 0.11836791
0001f0 2c 64 ed 3d c4 e2 02 3d 7e 01 90 3d 72 72 71 bd
       0.11591372 0.03195454 0.070315346 -0.058947034
000200 7a b7 58 bd 82 59 d8 bd 04 b4 e7 bc a7 6d b2 3c
       -0.052909352 -0.10563947 -0.02828408 0.021780802
000210 8e 4a 9d bc ed d8 d9 3d 13 0a 89 bd 08 f5 88 3c
       -0.01920059 0.106370784 -0.06691375 0.016718403
000220 ac 24 e4 bd b3 07 7b 3d f9 4e 9d 3d d4 9e 12 3d
       -0.11139807 0.06128664 0.076810785 0.035796
000230 0e 9d c5 bd 33 ab 36 bd da 8a a5 3d ea e7 bc 3d
       -0.096490964 -0.044596862 0.080831245 0.092239216
000240 9c a4 c3 bd 2f 2e 50 bd be 5c 0f 3e f5 37 a3 3d
       -0.09552881 -0.050825294 0.14000222 0.07969657
000250 f4 b1 8b bd 96 2c dc bd 46 66 d0 bd 8f 01 06 3e
       -0.06821051 -0.107506916 -0.10175757 0.13086532
000260 94 bf b1 3d ae e5 a1 3d 3e 06 01 3e b2 7e d6 bd
       0.08679119 0.07905136 0.12600037 -0.10473384
000270 89 e5 0d 3e 1b c2 b0 3d 75 d1 aa 3d dd 14 e3 bd
       0.13857092 0.08630773 0.08340732 -0.11087964
000280 6b f1 0b 3d 03 08 17 ba 98 a2 4c 3d 69 d7 4e bd
       0.03416578 -0.0005761387 0.04995975 -0.0504984
000290 7e b2 d2 bd e2 13 d5 bd 54 da 5f 3d 15 49 93 3d
       -0.10287951 -0.10404183 0.054651573 0.07191674
0002a0 16 d8 54 3c be f7 fe bd 19 52 a0 bd 7d 7c 75 3d
       0.012990972 -0.12449597 -0.07828159 0.059933174
0002b0 20 71 aa bd b7 b6 d5 bd 3e b8 a4 3d 96 21 fb bd
       -0.08322358 -0.10435241 0.08042954 -0.122622654
0002c0 9e 46 86 bc df bf e4 bc d8 ce 3f bd d4 df 60 3b
       -0.016391095 -0.027923523 -0.04682812 0.00343131
0002d0 42 91 e2 bc 5f 81 f9 3d 4d cd fb 3b 53 2a 09 bd
       -0.027657155 0.12182879 0.007684386 -0.03348763
0002e0 28 ff 6b bc 40 16 ea 3d b5 d8 e7 bc 82 94 ea 3d
       -0.014404096 0.11430025 -0.028301576 0.11454107
0002f0 89 09 17 3b 44 8c 9f 3d 06 ea 27 bd 79 cb ca bd
       0.0023046455 0.077904254 -0.040994667 -0.099020906
000300 46 86 67 3d fd 58 96 3d c0 5b 82 3d 56 c4 4c bd
       0.056524538 0.07341192 0.06365156 -0.049991928
000310 c9 fb ff 3d 82 79 95 3d ad 87 40 bc 23 e9 5d 3d
       0.12499196 0.072985664 -0.011751098 0.054177415
000320 34 de 2b 3d 94 e1 a5 3d 3e 92 e7 3c 40 83 92 bd
       0.041959956 0.08099666 0.028267976 -0.0715394
000330 98 35 ea 3b fb 3e 72 bc 22 b5 dc 3d dc ee 95 bd
       0.007147502 -0.0147855235 0.10776736 -0.073209494
000340 f0 76 21 bd 24 3a 80 bd 5c 63 d0 bd c5 b5 c5 3c
       -0.03942007 -0.062610894 -0.10175201 0.024134526
000350 ef ed 43 3b 22 04 9e 3c 46 9c 98 3d ff 69 84 3c
       0.0029896458 0.01928908 0.07451682 0.016163824
000360 0b d0 92 3d 0e d7 91 3d a3 7e fe bd 5e 5f 85 3d
       0.07168587 0.071210966 -0.12426498 0.065123305
000370 1c 88 89 bd 93 01 f8 bd c1 fc 43 bc 94 41 f5 bd
       -0.06715414 -0.12109675 -0.011962117 -0.11975399
000380 9b a1 9c bd 76 0e 0e 3d ec 45 a1 3c b5 c4 f6 bd
       -0.07648011 0.03468176 0.019686662 -0.12049238
000390 d3 cb b7 bb 60 52 b5 3c 6d 09 83 bd c4 69 7a bd
       -0.0056090145 0.022134006 -0.06398282 -0.061136022
0003a0 f1 d4 3c 3d c5 cf 94 bd 29 1b b1 3d d4 56 a1 3d
       0.046101514 -0.072661914 0.086477585 0.07877889
0003b0 18 a1 a3 bd 96 74 99 3d 87 6e 6f 3d 6c f1 ca 3d
       -0.079897106 0.0749294 0.058455016 0.09909329
0003c0 34 7f 1b 3d 8c 44 05 bd 01 60 05 bd 5f d9 5e 3a
       0.037963107 -0.032536075 -0.03256226 0.0008501019
0003d0 4a 39 06 3c b6 d0 0a 3e 45 af b7 3d fa 9f 8f bd
       0.00819237 0.1355618 0.08968977 -0.07012935
0003e0 06 46 b4 bd d0 79 1f bd 4d 4c 1a 3d 00 b4 3a 3a
       -0.088024184 -0.03893453 0.037670422 0.0007122159
0003f0 86 91 8e bb 3c d4 fb 3c 4c c8 85 3d 4f 90 46 3d
       -0.004350844 0.03074085 0.06532344 0.048477467

bias f4 [256]
000000 b7 7a bc 3d 0a b6 d0 bd e3 8a ba bd 5d 1c e1 3c
       0.092030935 -0.10190971 -0.09108522 0.027479345
000010 e4 7f b1 3d ce 51 bd bc 94 31 ad 3c 86 bc 90 bd
       0.08666971 -0.023110297 0.021141805 -0.07067208
000020 b4 9b 83 bd ef 89 c5 bd ed e0 ca 3c 03 a4 c3 3d
       -0.064261824 -0.09645449 0.024765456 0.09552767
000030 18 a6 5d 3d 3c 04 e7 3c 06 1e 0b 3e 5a 6f 67 bd
       0.054113477 0.028200261 0.13585672 -0.056502678
000040 eb f5 51 3d 61 09 b9 3d 77 40 07 bd c4 f1 59 3d
       0.051259916 0.09034992 -0.033020463 0.05320908
000050 b4 6c 84 bd 38 3b 52 bd 0e a0 1c ba c8 3b 12 3d
       -0.06466046 -0.051326007 -0.0005974778 0.035701543
000060 0d a1 5d bc 94 32 3d bc ec 4d b8 3d b3 44 89 bd
       -0.013527167 -0.011547703 0.089992374 -0.067025565
000070 c8 72 98 3d 22 a6 0b bd 5d 7c e3 bc 4d 2c fb 3d
       0.07443768 -0.034093983 -0.027769262 0.12264309
000080 fa ab c6 bc b8 87 b8 3d 8f 74 a1 3c 04 82 bc 3d
       -0.024251927 0.09010261 0.0197089 0.09204486
000090 ee 40 a4 3d 6d 3b ce 3b 6a 84 53 bd a7 b0 65 bd
       0.08020197 0.006293705 -0.05163995 -0.056076672
0000a0 4c e2 44 bb 46 e9 05 be 7c 9a d7 3d 41 e5 b0 bd
       -0.003004211 -0.13077268 0.105275124 -0.08637477
0000b0 bf f2 15 bd 29 dd d5 3d 3b df 0b bd 20 d8 ba 3c
       -0.036608454 0.104425736 -0.034148436 0.022808135
0000c0 d8 a4 83 bd d0 3c b2 bd eb a8 ab bb 17 50 d9 3c
       -0.06427926 -0.08703005 -0.0052386425 0.026527448
0000d0 a3 9b ee 3d d6 4e d2 3d 3b 31 95 bc c6 65 68 3d
       0.11650779 0.10268943 -0.018211951 0.056737684
0000e0 84 d5 bf bd e6 30 5c bd 0f dd 97 3d 0b 45 f5 3d
       -0.09366897 -0.05375757 0.074152105 0.119760595
0000f0 1b ba e2 bc df f7 8d 3d 05 e0 69 bd 61 39 89 bd
       -0.027676633 0.06932043 -0.057098407 -0.06700397
000100 eb 67 3d 3d 47 4d 9a bd 32 d7 2a 3d 00 29 b0 bd
       0.046241682 -0.07534271 0.041709132 -0.0860157
000110 95 2e e0 3d 69 30 9c bd 9e e7 92 bd 4b 34 10 bd
       0.10946385 -0.07626421 -0.07173084 -0.03520612
000120 8d 0c ef bd 3a 46 13 3e 62 7c 90 3d a2 14 87 3c
       -0.11672316 0.14382258 0.07054974 0.01648933
000130 a3 3e e9 3c a1 08 8e 3d 4c cd b9 bb cd 72 61 3d
       0.02847225 0.069352396 -0.0056702252 0.055041123
000140 48 22 f0 bd e2 09 b3 3d 93 af 9b 3d 2c 53 b3 bd
       -0.11725289 0.08742119 0.076018475 -0.08756098
000150 7f 37 da 3c d0 12 f4 bd b4 38 1f bb 91 87 b1 bd
       0.02663779 -0.11917651 -0.0024295272 -0.08668435
000160 80 7f 7f 3c 2c 94 a9 bd 9e f5 ab 3d 89 92 79 bd
       0.015594363 -0.08280215 0.08396457 -0.060930762
000170 ce 7a d5 bd d2 c1 e1 3d 10 15 92 3b 0c e2 a0 3c
       -0.10423814 0.110232964 0.0044580773 0.019639038
000180 80 1d 96 3c ac 48 76 3d bf b5 00 bc f8 b6 b4 3d
       0.018324614 0.0601279 -0.007855832 0.08823961
000190 76 f1 35 3d 78 d0 1d bc d5 62 ba bd 5a d8 60 3c
       0.04441973 -0.009632222 -0.09100882 0.013723457
0001a0 8c 88 a1 bd 07 9d dd bc e6 4e 37 bc 04 72 bb 3b
       -0.078873724 -0.027052416 -0.011188244 0.005720379
0001b0 34 95 db bd 4a bb 3d 3d dc 61 f1 3d 8d 21 f4 3c
       -0.107218176 0.04632119 0.11786243 0.029801155
0001c0 f6 f8 59 bd e6 4a a9 3d d1 23 c2 3d 9e ae 28 bc
       -0.053215943 0.08266239 0.09479488 -0.010295538
0001d0 2f 8f 96 bd 3f 37 a4 bd 18 75 9c 3c 51 44 9a bd
       -0.07351529 -0.0801835 0.019098803 -0.075325616
0001e0 0f 00 a2 bc cf 76 00 3d fe 0a 91 bc 0c a9 00 3d
       -0.019775419 0.031363305 -0.017705437 0.031411216
0001f0 23 d7 81 bd c5 56 85 3c 96 76 b6 bd 76 f7 4e bd
       -0.06339862 0.016276726 -0.08909337 -0.050528966
000200 ee 0a b3 bd 0e cd b3 3d 0f 0c 1c 3d 27 1b d6 bc
       -0.08742319 0.087793455 0.038097437 -0.026135994
000210 e5 57 c3 3d aa 3c a8 3d 91 cb a8 bd 6e 72 81 3d
       0.09538249 0.08214696 -0.08241952 0.06320654
000220 9e 6a a1 bd 8f 49 9c bd fb 91 fb bc 94 e1 c1 3d
       -0.07881664 -0.07631218 -0.030709257 0.09466854
000230 e7 51 27 bd 19 bd 0a bc 2a 67 cd bd 50 1f 5f bd
       -0.040849593 -0.008467936 -0.100294426 -0.05447322
000240 c9 55 39 3d 94 0c 2a bd 96 88 44 bd d4 50 61 3d
       0.045247827 -0.0415159 -0.04798182 0.055008724
000250 10 10 c7 bd da 84 01 be 20 8f af 3d f0 9f 9c bd
       -0.097198606 -0.12648335 0.08572221 -0.07647693
000260 5d 22 80 bb 04 f1 97 3d df 2a 93 bd a8 aa 11 3d
       -0.0039103464 0.07419017 -0.071859114 0.03556314
000270 07 cc 04 3e 73 d3 62 3d 17 46 0b bd 92 0f 07 bd
       0.12968455 0.055377435 -0.03400239 -0.032973833
000280 18 c3 1b 3d 64 c0 4b bd f6 bb c8 bd 9b 96 78 3d
       0.038027853 -0.049744025 -0.09801476 0.060690504
000290 1d 5d de 3d 91 ca e2 bd 28 da 9e 3c 84 fd ec 3d
       0.10857604 -0.11073793 0.019391134 0.11571792
0002a0 41 a3 1f bc f7 46 07 3c 15 59 ab 3d 7f f4 41 3d
       -0.009743513 0.008256665 0.083666004 0.04735231
0002b0 12 46 e7 3d 6b 6c 59 bc 34 ce b1 bc 85 1a 47 3c
       0.11292662 -0.013270478 -0.02170477 0.012152319
0002c0 f5 b7 bc 3b 4f 15 1b 3d 29 83 bb bd 2f 27 6b 3b
       0.005759234 0.03786212 -0.09155876 0.003588151
0002d0 f5 c8 5b bd bc b6 d1 bd 55 34 e6 3d 02 02 9c bd
       -0.053658444 -0.10239932 0.1124045 -0.076175705
0002e0 a1 0a 44 bd f0 8b ec 3c ac 83 8a bd 73 17 91 bd
       -0.0478617 0.028875321 -0.06763396 -0.07084551
0002f0 96 99 42 3c 7e 2d 09 3d 04 6a e0 bd 3e 4d 7a bd
       0.011877438 0.03349065 -0.10957721 -0.06110882
000300 71 c2 21 3c 24 46 bf 3d a0 73 67 bd bd 5f 06 3e
       0.009873019 0.0933955 -0.056506753 0.13122459
000310 01 71 24 3e 3a 25 6c bc 14 32 b3 bd f4 15 75 bd
       0.16058733 -0.014413172 -0.08749786 -0.05983539
000320 c2 29 20 3d 41 ce b9 bd e5 fa f9 3d 1d f0 d4 3d
       0.039102323 -0.09072543 0.122060575 0.103973605
000330 72 be ee 3d d3 75 95 b9 06 7b 09 3e 7a f8 c0 3c
       0.11657418 -0.0002850728 0.13425836 0.023555983
000340 0b 55 f6 3d 39 b0 08 3e 09 04 09 3d d2 17 4f 3d
       0.120279394 0.13348474 0.033451114 0.050559826
000350 e9 f6 80 3c 1e 13 26 bd ce b6 b9 3c 96 e1 b6 3d
       0.015742736 -0.040545575 0.022670176 0.08929746
000360 47 68 65 bd 88 95 0a 3d 94 00 b1 3d 90 63 2b bc
       -0.05600765 0.03383401 0.086426884 -0.010460749
000370 02 43 9d 3c 50 0e 98 bc 84 26 8b 3a 34 1b 0e 3e
       0.01919699 -0.018561512 0.0010616337 0.13877565
000380 bc c9 9b 3d 25 5f 90 3a bc 3c 2a bd 9e cb a8 bd
       0.07606837 0.0011014683 -0.041561827 -0.08241962
000390 5c f2 fb 3c 81 c7 aa bc 41 30 ac 3c e9 8a 12 3d
       0.030755214 -0.020847084 0.021019103 0.035777006
0003a0 44 e3 d2 3c 03 b3 27 bc 24 db c7 bc b9 12 02 3c
       0.025743134 -0.010235551 -0.024396487 0.007939034
0003b0 74 94 16 3d 07 9b 5e bc e7 05 b3 bd 7d a7 47 3d
       0.03676267 -0.013586766 -0.0874136 0.048743714
0003c0 c4 02 3a bc 58 18 fd 3d a5 c1 85 3d 09 43 f7 3d
       -0.011353198 0.12358159 0.065310754 0.12073333
0003d0 cc b0 aa 3c 3d 01 99 bc a7 25 14 3d b4 9a 37 3c
       0.020836256 -0.018677348 0.03616872 0.011206318
0003e0 6a ce c7 bd 00 0e 0a bd 3d 1d ca bd 3a 97 91 3d
       -0.09756167 -0.033704758 -0.09868858 0.07108922
0003f0 0e 99 01 be c7 a6 60 3d a3 6e c1 bd 0c e1 02 3e
       -0.12656042 0.05484655 -0.094449304 0.12781161

weight f4 [256, 256]
000000 be 37 9c bd bc 98 ca 3c 83 1a a1 3c a0 58 1e 3d
       -0.076278195 0.024731033 0.019665962 0.038658738
000010 13 f4 ed bc 0f ae 84 3c e5 42 34 bc f1 3c ff bb
       -0.029047048 0.016196279 -0.011002277 -0.007789247
000020 85 d7 66 bc 88 1a d8 bb 0a 4a 05 bd 81 be 0a bc
       -0.01408947 -0.0065949596 -0.032541312 -0.008468271
000030 20 dd 42 bb c9 f3 60 3d 76 1f e6 bb fc 71 d0 3c
       -0.0029733852 0.05491999 -0.0070227934 0.025444977
000040 6c 44 95 bd 5e 1e 9b bb a8 f4 32 3d 1e 79 7c bd
       -0.07288441 -0.0047338447 0.043690354 -0.061638944
000050 46 fd 99 bc ff 08 12 3d 26 fc e5 bc 2c bc 0a 3d
       -0.018797528 0.03565311 -0.028074335 0.03387086
000060 aa 01 ac bd 19 ad 14 3d 5b 8f 90 bc 6c 93 79 3d
       -0.08398755 0.03629789 -0.017646482 0.060931608
000070 bc 80 36 3d c1 a8 a9 3c a8 c1 66 bd a8 83 c8 bc
       0.044556364 0.020710351 -0.05633703 -0.024476841
000080 1e f2 82 bd 94 6b c5 bc 0d 67 99 3c 3b a0 b7 3c
       -0.063938364 -0.024099149 0.018725896 0.022415271
000090 cb 71 c7 3c d4 d5 e5 bc 8a 96 32 bd d4 5e 92 bc
       0.024346253 -0.028056063 -0.043600596 -0.017867483
0000a0 76 fb 6a bd 02 9f 60 3d 07 e4 6b 3d 54 d4 1a 3d
       -0.057368718 0.05483914 0.05759051 0.037800148
0000b0 f0 57 2d 3d c5 1c 94 3d 73 c5 ca bd e1 f0 e6 ba
       0.04232019 0.0723205 -0.09900942 -0.0017619395
0000c0 7b 4c 9b 3b 1a 31 08 bd 7f 3b ed bc 09 60 55 bd
       0.004739342 -0.033249952 -0.028959034 -0.05209354
0000d0 b4 ac b4 bc 42 0d 89 bc 72 c3 88 3c a3 16 53 bd
       -0.022055008 -0.016729955 0.016694758 -0.05153526
0000e0 27 93 c2 bb 8c 83 87 3d 6d f7 96 bd aa e0 bd bb
       -0.005937952 0.066168875 -0.073714115 -0.0057946043
0000f0 01 9b c7 3d 09 6b 39 3d ff 7e 76 3d 6a bb bd 3c
       0.097463615 0.045268092 0.060179707 0.023160655
000100 52 ae 57 bb f8 7a 5c 3d 83 4c d2 3c e5 b5 21 bd
       -0.00329103 0.05382821 0.02567125 -0.03948011
000110 36 9a 62 3d 0c 4d 26 bd 5f de d3 3c a5 7b 98 3d
       0.05532285 -0.04060082 0.02586287 0.07445458
000120 45 28 1d bd 29 aa 34 3c f4 f4 79 3d 35 ee b0 bc
       -0.038368482 0.0110268975 0.06102462 -0.021597961
000130 77 e4 28 3d 22 b9 19 3d 1f 36 86 bd 21 da 68 3d
       0.041233506 0.037530072 -0.065532915 0.05684865
000140 43 40 e6 3c 1a 36 9a bc b6 9b 3b 3b 56 a8 c2 3c
       0.028106814 -0.018824626 0.0028626746 0.02376191
000150 f6 07 1a 3d ac 24 46 3d 4b d9 a8 3c 96 03 53 bd
       0.03760525 0.048374817 0.020611426 -0.05151709
000160 3e ca dd bc 68 15 36 bc c3 fa fc bc f3 9d 94 3c
       -0.027073976 -0.011113502 -0.030881291 0.018141722
000170 d1 a7 f4 3c 41 55 7c bd 11 88 f2 3b f6 50 84 bc
       0.029865177 -0.061604742 0.0074014743 -0.016151886
000180 40 60 f6 3c d0 92 6e 3c 58 5b a6 bc 14 44 25 3d
       0.030075192 0.01456137 -0.020307228 0.040348127
000190 b1 d7 b2 bc 98 b5 f5 3b dd 4a 1e 3b 47 94 7e 3d
       -0.021831365 0.0074984543 0.0024153509 0.062153127
0001a0 4e ca f0 bc 49 d2 7f 3b 9b d0 90 bc 22 2d d9 3b
       -0.029393341 0.0039035252 -0.017677596 0.0066276947
0001b0 ad 66 6c 3d 19 1e 75 3b 1e 7a 66 3d 13 9a ab 3d
       0.057715107 0.0037401973 0.056268804 0.08378997
0001c0 b8 bc d5 bc 92 7e 4c 3d df 11 7c bd 34 f5 9f bd
       -0.026090965 0.049925394 -0.06154048 -0.07810441
0001d0 10 05 fe 3c 27 05 e2 bb f8 ec 00 3c f6 d5 58 3d
       0.031008273 -0.006897587 0.007868998 0.052938424
0001e0 26 17 d7 3c d6 15 5a 3d aa fb 4c bd 72 3a 55 3d
       0.026256155 0.05324348 -0.050044693 0.05205769
0001f0 82 ed d1 bc 33 af c5 3c 09 d4 fc 3b ab 6d 17 bd
       -0.025625948 0.024131393 0.0077157062 -0.036969822
000200 96 5d 45 bd 21 2e d9 bc 9b 79 5f 3d 79 b6 81 3c
       -0.048184954 -0.026511254 0.05455933 0.01583408
000210 f5 a0 10 bd 76 c7 16 3d 74 2f 06 bd 97 63 5c bd
       -0.03530975 0.036811315 -0.0327601 -0.053805914
000220 01 06 14 bb 46 5c 2e 3d 39 aa 1b 3d 98 52 b5 3c
       -0.0022586586 0.042568468 0.038004134 0.02213411
000230 68 dd 22 3d 05 8c 0d 3d 8e e3 e1 bc cb 52 85 bd
       0.03976193 0.03455736 -0.027574327 -0.06509932
000240 33 a3 4d 3c a9 c1 05 bc 95 6f 61 3c 58 a9 80 3c
       0.012551117 -0.008163848 0.013759513 0.01570575
000250 a5 14 a9 3c 3d 11 ca 3c 17 48 65 3d a0 d7 35 3c
       0.020639727 0.024666423 0.055976953 0.011098772
000260 b2 a2 f8 3c 5d e7 21 bd 31 00 c9 3b 92 c7 50 3d
       0.030351017 -0.039527286 0.006134056 0.050971575
000270 95 b2 06 3a 4b 87 49 bd 9f f2 0c bd c9 33 75 3b
       0.0005138305 -0.04920129 -0.03441107 0.00374149
000280 88 27 9e 3d 32 46 46 3d c2 62 5a 3d 95 62 b9 3c
       0.07722384 0.048406787 0.05331684 0.022630015
000290 1b b3 47 bd aa 23 df bc 41 00 94 bc 40 9f d2 3c
       -0.048754793 -0.027238686 -0.018066527 0.025710702
0002a0 3b 27 75 3d 3c 23 38 3d ae 22 37 bd 81 ec c4 3c
       0.059851866 0.044955477 -0.044710808 0.024038555
0002b0 59 91 42 bd 9d 30 3b 3c bc 69 b8 3c 7a d7 e4 3b
       -0.047501896 0.0114251645 0.022511356 0.0069836946
0002c0 f0 66 3b 3d 29 b9 19 bd a2 f2 56 bc ab a6 5f 3d
       0.045752466 -0.037530098 -0.013119372 0.054602306
0002d0 cb a3 69 bd 42 15 3d 3d e1 49 f9 3c 15 66 4b 3d
       -0.05704097 0.04616285 0.030430736 0.0496579
0002e0 e0 c6 71 3c b6 67 7b 3b fe 31 78 bb 36 40 78 3d
       0.014756888 0.0038361377 -0.0037871595 0.06060811
0002f0 fa fd ef 3b ad e6 5e 3d be 7b 28 bb 7f 27 8f 3d
       0.0073239775 0.05441921 -0.0025708522 0.06989955
000300 60 f6 24 3d d9 57 0e 3d d4 bf 02 3d 31 b1 28 bd
       0.040274024 0.034751747 0.031921223 -0.041184608
000310 fe 72 2e bd 92 69 97 bc 35 b8 3d bc 33 6d d7 bc
       -0.042590134 -0.018482957 -0.011579563 -0.026297187
000320 a6 5a aa 3b bb d4 fa 3a 70 00 08 bb 9a e5 8f bd
       0.0051987944 0.0019136885 -0.0020752214 -0.07026215
000330 6a fb 83 bd ff 11 b4 bc 3d 4e cb bb 39 0d 4b bc
       -0.06444438 -0.021981237 -0.006204395 -0.012393289
000340 1f 2d 2e 3d 7f 3f 88 bc b7 f0 32 3d df 10 f9 bc
       0.0425235 -0.01663184 0.043686595 -0.030403553
000350 b8 ea fb bb 85 0e 6b 3d cd a5 ab bd ad e4 05 3d
       -0.0076878928 0.057386894 -0.08381233 0.032688785
000360 64 7d 3c 3c 02 5e 48 3d fc 58 77 bc 0b ad 98 bd
       0.011504505 0.048917778 -0.015096899 -0.0745488
000370 77 5e f4 3c ad 1d 96 bb fa ea 37 3c 16 55 8d bc
       0.0298302 -0.0045811743 0.011225456 -0.017252486
000380 8f 76 ce bc d3 61 52 3d 22 e0 4c 3d d7 77 1e bb
       -0.025203018 0.051362824 0.050018437 -0.0024180317
000390 41 c1 41 3d 47 e3 2b bd a0 9d 1e 3d b1 47 40 3d
       0.047303442 -0.041964795 0.03872454 0.04694337
0003a0 00 7f ac bc c6 09 aa 3d 2c fb 0f bd c4 a2 2c bd
       -0.021056652 0.083026454 -0.035151646 -0.042147413
0003b0 54 aa 1e bd 4c e0 11 bd 39 99 4d 3c 7e 51 87 3c
       -0.038736656 -0.035614297 0.012548738 0.01651835
0003c0 29 b1 8c bd 09 88 83 3c 18 2a 2c 3d 66 35 02 3d
       -0.06869728 0.016056078 0.04203233 0.031789206
0003d0 e4 69 58 3c c2 b2 47 3d 05 f6 a0 3c bd 59 94 bc
       0.01320884 0.04875446 0.019648561 -0.018109197
0003e0 b7 c3 1e 3d 0a b1 15 b8 3f a5 3a bd 8f a1 93 3d
       0.038760867 -3.568925e-05 -0.045567747 0.07208549
0003f0 a7 e6 03 bd 86 40 29 3c a9 91 63 3c 54 77 9c 3d
       -0.03220239 0.010330325 0.013889709 0.076399475

bias f4 [256]
000000 d5 ce 56 bd 2e f0 35 3d ff 8d 63 bc 0f 3b 30 3d
       -0.052443344 0.044418506 -0.013888835 0.043025073
000010 3a af 4e bd 72 a2 8d bc 21 cd 6c 3c 61 47 5a 3d
       -0.050460078 -0.017289374 0.014453203 0.05329073
000020 1c 1c 7d bc 80 3f f7 3b fb 33 d3 bc ec 8f cc bb
       -0.015448596 0.0075454116 -0.025781622 -0.0062427428
000030 5d 87 33 3d a4 72 0c 3c 22 5c 2b bd b2 27 8b 3d
       0.043830264 0.008572254 -0.04183591 0.06794681
000040 bf a0 64 bd 11 45 5f bd ef a6 f5 3c c0 b1 51 bd
       -0.055817362 -0.054509226 0.029986827 -0.051194906
000050 b7 31 a6 bc 5f 6b 8c 3c 72 02 e9 ba 52 f0 2a bd
       -0.020287378 0.017141042 -0.0017777218 -0.041733094
000060 d6 b5 6d 3d 18 cf 25 3d bb 3a 8a 3d 2f 30 45 3d
       0.05803474 0.040480703 0.06749483 0.048141655
000070 d5 5d 2d 3c fe 83 08 3c 5e 7d 83 3b a6 fe fb bc
       0.010581453 0.008332251 0.0040127477 -0.030761074
000080 8b 92 2a bd d9 59 bd bc 11 5a 3d bd 37 c8 6a bc
       -0.04164366 -0.023114132 -0.046228472 -0.0143299615
000090 61 4c e7 bc b8 53 9c 3c b1 52 12 bd b0 f4 59 3d
       -0.028234662 0.019082889 -0.035723392 0.053211868
0000a0 ca 3a 90 3d 08 bb 8c bc 28 91 6f 3d 38 5f 83 3d
       0.07042463 -0.017179027 0.05848804 0.06414646
0000b0 2a 40 02 3d c1 85 9b 3c ac 32 3e 3d 9b 9d ee 3c
       0.031799473 0.018984677 0.046435043 0.029127887
0000c0 46 87 37 bb 3d 06 f6 bc 2e 7d 3b 3d e1 43 da bc
       -0.0028004213 -0.030032272 0.045773678 -0.026643695
0000d0 fd 24 1e bd f4 bf f4 3b 25 8f 65 bd 85 48 2b 3d
       -0.038609494 0.0074691717 -0.056044716 0.041817207
0000e0 de ff 85 3d 5b a3 2e bd a4 55 b3 bc 32 7d 94 3d
       0.065429434 -0.042636257 -0.021891423 0.072504416
0000f0 71 df 0f bd 81 49 42 bd ba 17 3f bd a6 45 2f 3a
       -0.0351252 -0.04743338 -0.046653487 0.00066860986
000100 84 29 9d bc e2 c3 65 3d f3 53 69 3c 2a 78 cf 3c
       -0.019184835 0.05609501 0.014241206 0.025325853
000110 1c dc 76 3b c0 14 31 bd 5d e1 96 3c 4e a3 85 bb
       0.0037667817 -0.04323268 0.018418008 -0.0040783053
000120 54 30 2d bc cb 86 10 3c 75 cf 36 3d 42 fd a9 3c
       -0.010570604 0.0088212 0.04463144 0.020750646
000130 40 31 e0 3c eb 19 47 bd 49 68 0c 3d 8e 42 45 3d
       0.027367234 -0.0486087 0.03427914 0.048159175
000140 26 36 f8 bc 9b 0f 85 3d e7 84 0f bd ab d8 b6 3c
       -0.030299257 0.06497117 -0.035038855 0.022320112
000150 be ad 72 3d 3e 78 ee 3c a8 0e 31 bd 99 02 88 3b
       0.059247725 0.02911007 -0.043226868 0.0041507003
000160 2d b5 a2 3c 6d 53 2b bd c2 8f 6c bd cb 60 49 bd
       0.019861782 -0.041827608 -0.057754286 -0.049164575
000170 dc 45 41 3d d0 47 28 bd 68 30 ff 3c 12 7b 5e 3d
       0.047185764 -0.04108411 0.031151012 0.054316588
000180 9c 89 39 bd 05 1f db bb 09 bd f1 bc 0b 2e c8 3c
       -0.04529725 -0.0066870474 -0.029509084 0.024436017
000190 a4 d2 ee 3c 9e d0 65 3c bb 8c 3c 3d f2 59 b1 3c
       0.029153176 0.014026789 0.04603265 0.021649335
0001a0 96 bf 9a bc 33 a2 1d 3d 30 94 66 bc a8 33 b9 bb
       -0.018890183 0.038484763 -0.014073417 -0.00565191
0001b0 08 58 ca bc 31 2a 5c 3d 3f cf 40 3b 9d e7 e5 bc
       -0.02470018 0.053751174 0.0029420403 -0.028064543
0001c0 8e 60 ff 3b c2 7e d1 3c 29 1c 30 bd 0c 77 8b 3d
       0.0077934926 0.025573138 -0.042995606 0.06809816
0001d0 87 24 ef 3c 62 6f 66 3c 6a f8 18 bc 32 6f 77 3c
       0.029192222 0.014064642 -0.00933657 0.015102195
0001e0 54 11 30 bc 43 d3 a1 3c 45 9f 4d 3d c1 bb a2 bc
       -0.010746319 0.019754058 0.05020072 -0.019864919
0001f0 c1 b4 8d 3d ab 4f 35 3c 8a d2 a4 bb 62 51 7a 3d
       0.06919242 0.011066358 -0.005029981 0.06111277
000200 31 46 59 3d 27 fb 85 3d 10 6a 9a 3c a2 82 09 bd
       0.053045455 0.06542044 0.018849403 -0.033571847
000210 ff 3f aa bc 52 31 4f 3d cf f4 71 3d 66 1d 02 bd
       -0.020782469 0.050584145 0.05907136 -0.031766318
000220 9a 55 3f bd aa 5b f9 3b 27 99 54 3d 87 81 e6 bc
       -0.046712495 0.007609804 0.05190387 -0.028137935
000230 46 66 f3 ba d4 c8 3f 3d 98 cd 8a 3c 99 35 9f 3c
       -0.0018569909 0.046822384 0.016943738 0.019434737
000240 ae 50 20 bc 3a de d7 3b 8b 2f 03 bd fe 6f 28 bd
       -0.009784861 0.006587771 -0.032027762 -0.04112243
000250 bf 75 cc bc 4b bb 83 3b c6 d4 13 bd 3b 44 12 3d
       -0.02495849 0.00402013 -0.03609159 0.0357096
000260 09 e7 72 3b 19 29 07 bd b8 d6 2e bd 4f 95 0d bd
       0.0037063977 -0.03299818 -0.04268524 -0.03456622
000270 16 96 48 3d 08 c9 42 bc 57 31 b0 bc 75 67 05 bd
       0.048971258 -0.01188875 -0.021507902 -0.032569367
000280 56 36 23 3d 8a 5d 70 bd 26 81 8f 3c 4d 74 ce 3a
       0.03984674 -0.058682956 0.017517637 0.0015751213
000290 07 de 45 bb 43 d5 19 3d d1 71 93 3d bc 8e 92 3c
       -0.0030192153 0.037556898 0.07199443 0.017890327
0002a0 bc e1 35 bd d1 e6 d4 bc fe f0 48 3d d8 55 88 bc
       -0.04440473 -0.025988968 0.049057953 -0.016642496
0002b0 47 c5 4c bd c0 b3 31 bd 11 6d 64 bd f5 bf 6c bb
       -0.049992826 -0.043384314 -0.055768076 -0.0036125157
0002c0 35 02 40 3d 10 45 44 bd 12 79 30 bd 1a 84 d4 3b
       0.046877105 -0.047917426 -0.04308421 0.0064854743
0002d0 19 05 a3 bb fb c0 99 3b 53 9d 13 bd cd 49 99 bc
       -0.004974973 0.0046921945 -0.036038708 -0.018711949
0002e0 a0 89 85 bc 60 7d d5 3c bd ac a5 3c 7c ca 1f bd
       -0.016300976 0.02606076 0.02022397 -0.039011464
0002f0 77 b6 f6 3c b1 26 8f 3c 4c b5 cc bc d5 fa fc bc
       0.030116303 0.017474504 -0.024988793 -0.030881325
000300 4f ce 2a 3d 64 fc 48 bd a6 57 37 3d 77 3a 49 3d
       0.041700657 -0.049068823 0.044761322 0.049128022
000310 ef 1a 57 bd 1a d4 bb bc 3f 97 b8 bc 3b c7 22 39
       -0.05251592 -0.022928286 -0.022533057 0.00015523743
000320 38 65 57 3d 5a 85 a9 bc 77 1a 38 bb 65 b1 26 ba
       0.052586764 -0.02069347 -0.0028091946 -0.00063588313
000330 01 a7 ee 3c 6c bc 0f bd eb d8 45 3d b9 d1 49 3d
       0.029132368 -0.035091802 0.048302572 0.049272273
000340 90 69 67 3d 13 80 96 bb a5 e0 3d bc cf 88 3f bd
       0.056497157 -0.0045929044 -0.011589204 -0.04676133
000350 a6 62 78 3d d7 ce 14 3d 3a 33 b8 3c 8d 20 d7 3c
       0.060640953 0.03633007 0.022485364 0.026260639
000360 94 c4 64 3d ee 82 83 3c 39 fc a0 bc 2f f6 8f bb
       0.055851534 0.016053643 -0.01965152 -0.004393361
000370 c3 75 61 bb 5d 48 14 bd 69 99 33 3c ce f1 81 3d
       -0.0034402467 -0.036201824 0.010961869 0.06344949
000380 0f 8e 4b 3d ab 72 d4 3b 5b d9 af bb 93 c2 ab bc
       0.049696025 0.006483396 -0.005366487 -0.020966804
000390 96 47 05 3b fe 83 15 3d 2e ba 2d bd 0e db 87 bc
       0.0020336858 0.03650283 -0.042413883 -0.016583946
0003a0 d6 6d 2b 3d cd e7 2d 3d 9d f3 5f 3d 9b 01 67 bd
       0.041852795 0.04245739 0.054675687 -0.056398015
0003b0 b7 f2 c7 bc 81 32 7f 3d b2 5d 07 bd 3d 0f 8d 3c
       -0.024407728 0.062304024 -0.03304834 0.01721918
0003c0 e2 00 bb 3c 8b 5e 89 3b d4 19 8c 3c a7 52 1d bd
       0.02282757 0.0041921786 0.01710216 -0.0384089
0003d0 4d a1 66 3d 6b 43 d6 bc c8 11 e5 3c e1 f6 a0 3b
       0.056306172 -0.026155194 0.02796258 0.0049122428
0003e0 af 21 30 bd 7c 66 33 bd b3 3e 12 3d 51 b1 b5 3c
       -0.043000873 -0.04379891 0.035704326 0.022179278
0003f0 de 86 ff bc 16 35 5b 3c bb 9a 63 bd bb 69 03 3d
       -0.03119224 0.013379356 -0.055567484 0.032083254
