rotnet.pt (torch, 96791 bytes, 6 tensors)

weight f4 [16, 1, 3, 3]
0	0xbeef7be8	-0.4677422
1	0xbccf7a78	-0.025326952
2	0x3eb105ec	0.3457483
3	0xbeeafbbb	-0.4589518
4	0x3db33d3a	0.087519124
5	0xbe562e1c	-0.20916027
6	0xbe3c756e	-0.18404171
7	0xbf151b1c	-0.5824449
8	0xbe01e5dd	-0.12685342
9	0x3df4fa15	0.11961762
10	0x3c38609c	0.011253502
11	0xbedc889c	-0.43072975
12	0x3e6e1b9f	0.23252724
13	0xbeb87dfd	-0.3603362
14	0x3d94ef5c	0.07272217
15	0xbede3ae7	-0.43404314
16	0xbdf4798b	-0.11937245
17	0xbe0240a2	-0.12719968
18	0xbe2bdde5	-0.16783865
19	0x3de5deb4	0.11224118
20	0x3e8ca0a6	0.27466315
21	0xbe26317a	-0.16229811
22	0xbed08319	-0.4072502
23	0x3e78e9e1	0.24307968
24	0x3e575a58	0.21030557
25	0xbe87aef5	-0.2650067
26	0xbdf9d719	-0.1219923
27	0xbbf9ff72	-0.0076293284
28	0xbe6415ad	-0.22273894
29	0xbea5a599	-0.32352903
30	0xbedc0641	-0.4297352
31	0xbe8e90a9	-0.27844742
32	0xbd2bae3f	-0.04191422
33	0xbe6cb6f8	-0.23116672
34	0x3dccf292	0.10007204
35	0x3ea8227d	0.32838812
36	0x3ce6c080	0.028167963
37	0xbde9a9e8	-0.1140936
38	0xbe4030ff	-0.1876869
39	0xbd21b6a1	-0.03948081
40	0xbe97c358	-0.29641223
41	0xbe6d3684	-0.23165327
42	0xbd1793ef	-0.037006315
43	0x3e97de7c	0.2966193
44	0x3eb3a3b5	0.35085836
45	0x3d194864	0.037422553
46	0xbeaf2ec0	-0.34215355
47	0xbed99419	-0.42495802
48	0x3e8380c4	0.25684178
49	0xbe81fe96	-0.25389546
50	0x3e3b17c7	0.18270789
51	0x3e7c0876	0.24612603
52	0x3e4e86f6	0.20168671
53	0xbe74852c	-0.23878926
54	0xbda199fc	-0.07890698
55	0x3b949812	0.0045347298
56	0xbe7c7908	-0.24655545
57	0xbedff744	-0.43743336
58	0xbce1394a	-0.027493138
59	0x3e6808ae	0.22659561
60	0x3e526a6e	0.20548412
61	0xbc92d755	-0.017924944
62	0x3e832000	0.25610352
63	0x3d4ff256	0.05076822
64	0xbe6a0ffb	-0.22857659
65	0xbe046b83	-0.12931637
66	0xbdc20c7b	-0.09475037
67	0x3ca3e4a0	0.020006478
68	0x3e67046a	0.22560278
69	0xbe69d4a8	-0.22835028
70	0xbd86fb1b	-0.06590863
71	0xbca5a500	-0.02022028
72	0x3ecf3fdd	0.4047841
73	0x3e2a0c51	0.16606261
74	0x3ca6371c	0.02028995
75	0xbda7f981	-0.08201886
76	0xbd9f28fd	-0.0777149
77	0x3d84b895	0.06480519
78	0xbea49228	-0.32142758
79	0xbe8b2d2c	-0.271829
80	0xbece4459	-0.4028652
81	0x3e77ccc4	0.24199206
82	0x3df3816e	0.11889921
83	0xbd82c267	-0.063847356
84	0x3e6b1fd3	0.22961359
85	0x3de08eec	0.1096476
86	0xbe6146a3	-0.21999602
87	0x3dac9cc9	0.08428342
88	0xbd9be0ad	-0.07611213
89	0x3e8ae5c0	0.2712841
90	0x3dff349f	0.124612086
91	0x3eb16660	0.34648418
92	0x3e8db58e	0.27677578
93	0xbe1ff885	-0.15622146
94	0xbe85274b	-0.2600654
95	0x3d4ff60c	0.050771758
96	0x3e0a2dd4	0.13494045
97	0xbe87f1cf	-0.26551673
98	0x3e85691e	0.2605676
99	0x3dbe1bce	0.09282647
100	0xbddb562a	-0.10709794
101	0x3be0ec83	0.006864132
102	0x3e7f4d42	0.24931815
103	0xbe5a8401	-0.21339418
104	0xbd938dad	-0.07204757
105	0x3e43056a	0.19045034
106	0x3e376361	0.17909004
107	0x3e822b36	0.25423592
108	0xbdc9c1fc	-0.09851453
109	0x3e6cf3cd	0.23139878
110	0x3dd817f9	0.105514474
111	0x3e08a7c3	0.13345246
112	0x3e2fca9c	0.17167133
113	0x3d85cd6a	0.0653332
114	0x3e923ac7	0.2856047
115	0x3d9e80fb	0.07739445
116	0xbd058256	-0.032595
117	0xbe61089c	-0.2197594
118	0xbe1f1fbe	-0.15539452
119	0x3e56e96f	0.20987485
120	0x3e91f703	0.28508767
121	0x3c127e57	0.008941255
122	0x3e87d457	0.2652919
123	0xbe278eca	-0.16363063
124	0x3e808266	0.25099486
125	0x3cc0d9e9	0.023541408
126	0xbda1d71a	-0.079023555
127	0x3e67d583	0.22640042
128	0x3e052201	0.13001253
129	0xbe8c064c	-0.27348554
130	0x3e7be29c	0.24598163
131	0x3dfc77c5	0.12327532
132	0x3d2503c4	0.040286794
133	0x3d9fe3a0	0.07807088
134	0x3e907e6a	0.28221446
135	0xbec7b3d0	-0.39004374
136	0xbe9c23ed	-0.3049616
137	0xbe901670	-0.28142118
138	0xbe63e4e0	-0.22255278
139	0x3e795c43	0.24351601
140	0xbe895788	-0.26824594
141	0x3eb6e65a	0.3572262
142	0x3ea7fc93	0.32809886
143	0x3e6aeb28	0.22941267

bias f4 [16]
0	0x3ea89bfd	0.3293151
1	0x3e26fe04	0.16307837
2	0xba048bf9	-0.0005056258
3	0x3db1b62d	0.086773254
4	0xbd609126	-0.054825924
5	0x3e09e7ee	0.1346738
6	0x3db7c77c	0.089735955
7	0xbe91ff55	-0.28515115
8	0x3de71b3d	0.11284492
9	0xbb928e41	-0.0044725244
10	0xbdbe3f95	-0.09289471
11	0x3e05bbe2	0.13059953
12	0xbb46b966	-0.0030322908
13	0xbb68f18d	-0.0035544366
14	0xbda24ffe	-0.079254135
15	0x3be56000	0.0069999695

weight f4 [32, 16, 3, 3]
0	0xbd3542a7	-0.044253018
1	0xbd7e2e9e	-0.062056176
2	0x3dba6a73	0.09102335
3	0x3cef4a42	0.029210214
4	0x3d72adac	0.059247658
5	0x3dcb7364	0.099341184
6	0xbd1ae000	-0.03781128
7	0x3d2202d9	0.039553497
8	0x3dc6799c	0.09691164
9	0xbdcd163f	-0.10014009
10	0xbd9a8ac6	-0.07546
11	0xbd6798bd	-0.056542147
12	0xbbc371aa	-0.0059644775
13	0xbb81c97e	-0.0039607873
14	0x3c0641a9	0.008194366
15	0xbc996d00	-0.018728733
16	0xbc64d3a0	-0.013966471
17	0xbd9315ba	-0.071818784
18	0xbd04791f	-0.032342073
19	0x3d79a2d5	0.060946304
20	0x3de48c05	0.11159519
21	0xbd933201	-0.07187272
22	0x3ce604ea	0.028078515
23	0x3e00fc75	0.12596305
24	0xbcd40a26	-0.025883745
25	0xbd3771f1	-0.044786397
26	0x3d6dc481	0.05804873
27	0xbe4690d3	-0.19391184
28	0xbd6bfb18	-0.05761251
29	0xbd94640a	-0.072456434
30	0xbe15f645	-0.14644726
31	0xbd193213	-0.03740127
32	0xbdf45708	-0.119306624
33	0xbcb557ff	-0.022136686
34	0xbd491b07	-0.04909804
35	0xbc135a7c	-0.008993741
36	0xbe2a88b1	-0.16653706
37	0xbe1023b9	-0.14076127
38	0xbe39e695	-0.18154366
39	0xbe3f7238	-0.18695915
40	0xbdea237d	-0.1143255
41	0xbe82b841	-0.255312
42	0xbda70d36	-0.08156817
43	0xbda32f94	-0.07968059
44	0xbdcbf8e1	-0.09959579
45	0xbd76459d	-0.060124982
46	0x3d3dcf01	0.046339992
47	0x3dde4390	0.1085273
48	0xbb93740e	-0.004499919
49	0x3e1adf6d	0.15124293
50	0x3dd2c788	0.10291964
51	0x3d990f73	0.0747365
52	0x3df9a35f	0.12189364
53	0x3ca65baa	0.02030738
54	0xbe109a11	-0.14121272
55	0x3ccafbeb	0.024778327
56	0xbe0b0c7f	-0.13578986
57	0xbdb13f39	-0.08654637
58	0xbc6caca5	-0.014445459
59	0xbcde98b5	-0.027172426
60	0xbd86110b	-0.065462194
61	0x3d22b9a2	0.039727814
62	0xbd37efc8	-0.044906408
63	0xbd68b0db	-0.056809288
64	0x3cd082fb	0.025453081
65	0xbda0aac0	-0.07845068
66	0xbd21c113	-0.03949077
67	0x3c91689b	0.017750075
68	0xbda35144	-0.079744846
69	0x3d3a5a83	0.045496475
70	0x3c6b31c0	0.014355123
71	0xbc9cfd06	-0.01916362
72	0xbe3cdfe8	-0.18444788
73	0xbdc4f11a	-0.09616299
74	0xbd93e7a5	-0.07221917
75	0xbe000605	-0.12502296
76	0xbd299ede	-0.041411273
77	0x3c14e66c	0.00908814
78	0xbe7e6ecf	-0.24846958
79	0xbde6bfcc	-0.11267051
80	0xbc9ad6eb	-0.018901309
81	0x3c39d246	0.011341637
82	0xbba197c5	-0.0049314224
83	0xbd97290c	-0.07380876
84	0xbc062437	-0.008187345
85	0x3d07cbc3	0.033153307
86	0x3c337731	0.01095371
87	0x3d88b5c0	0.06675291
88	0x3d941e59	0.07232351
89	0x3d07c470	0.03314632
90	0x3d6fd06b	0.058548372
91	0x3d24c08a	0.040222682
92	0xbd973b16	-0.073843166
93	0x3da925af	0.08259141
94	0x3d8d095a	0.06886549
95	0xbd94f0ab	-0.07272466
96	0x3d3206b1	0.043463413
97	0xbd1b56f1	-0.03792471
98	0xbd9d7c4c	-0.07689723
99	0x3d21b97a	0.039483525
100	0x3d055acd	0.032557297
101	0x3cf61f25	0.030044148
102	0xbd88010a	-0.06640823
103	0x3d163cff	0.036679264
104	0xbd9bcc71	-0.076073535
105	0x3db0f0ce	0.0863968
106	0xbd5339f8	-0.051568955
107	0x3d5ed02c	0.054397747
108	0x3d0bad20	0.03410065
109	0x3b90be07	0.0044171843
110	0xbd8bd5a6	-0.068278596
111	0x3ce8bf58	0.028411552
112	0x3d7914ab	0.060810726
113	0xbd96a7c9	-0.07356221
114	0x3d6e1408	0.058124572
115	0xbcfc9f55	-0.030837694
116	0x3da697e4	0.081344396
117	0xbd4bc3e2	-0.049747355
118	0xbae8743a	-0.0017734834
119	0xbe1f8ea1	-0.15581752
120	0xbc2e16ff	-0.0106256
121	0x3d85c49d	0.06531642
122	0xbd466d04	-0.04844381
123	0x3d53ac96	0.051678263
124	0xbdaaa22e	-0.083317146
125	0xbe154586	-0.14577302
126	0x3d49bd0a	0.049252547
127	0xbd8909b0	-0.06691301
128	0xbd13f927	-0.036126282
129	0xbbe4f2e3	-0.006986962
130	0xbcf52dbb	-0.029929033
131	0xbcd1df2c	-0.025619112
132	0x3da0ffe7	0.078613095
133	0xbc3967f3	-0.011316287
134	0x3cec68c5	0.028858552
135	0xbd9c893d	-0.076433636
136	0xbd1a8702	-0.03772641
137	0xbda489c1	-0.08034087
138	0xbdf11844	-0.117722064
139	0xbe1c85b5	-0.1528538
140	0xbd8a34ec	-0.06748375
141	0x3d86e79f	0.06587147
142	0x3d0b8c72	0.034069486
143	0xbd920d12	-0.07131399
144	0x3d8dca37	0.06923335
145	0x3dc11687	0.09428125
146	0x3e313c5a	0.17308179
147	0x3c8ca71c	0.017169528
148	0x3da4d81c	0.08049032
149	0x3e0e187f	0.13876532
150	0xbbebfabc	-0.0072015207
151	0x3d578030	0.052612484
152	0x3e0064fd	0.12538524
153	0xbce3b329	-0.027795391
154	0xbc85434c	-0.016267441
155	0xbe0c8281	-0.13721658
156	0x3dbcf011	0.092254765
157	0xbd56447b	-0.0523114
158	0xbdd811d6	-0.10550277
159	0xbd709b35	-0.058741767
160	0xbd7e56d1	-0.062094513
161	0xbe28a0e1	-0.1646762
162	0x3deb0f1e	0.11477493
163	0x3de13325	0.10996083
164	0x3e453c68	0.19261324
165	0x3dc09ee5	0.09405307
166	0x3d981b9f	0.07427143
167	0x3dfa1b7f	0.12212276
168	0x3b165ecb	0.0022944685
169	0x3e1e2805	0.15444954
170	0x3e20b820	0.15695238
171	0x3d0fc6fc	0.035101876
172	0xbc5b3f35	-0.013381769
173	0x3cc0f3b1	0.023553701
174	0xbd8af553	-0.06785073
175	0xbb8739d4	-0.0041267667
176	0x3c9bacf8	0.019003376
177	0xbe0d8452	-0.13820007
178	0xbe0ae20d	-0.13562794
179	0xbe070ef0	-0.13189292
180	0xbdc78ded	-0.09743867
181	0xbd1ea15e	-0.03872811
182	0xbdcaf7b4	-0.09910527
183	0xbe076cb5	-0.13225062
184	0xbe0128a0	-0.12613153
185	0xbe080b3a	-0.13285533
186	0xbe94d55f	-0.2906904
187	0xbe3f1221	-0.1865926
188	0xbe9b00ea	-0.30274135
189	0x3cf96489	0.030443447
190	0xbd862621	-0.06550241
191	0xbd92b998	-0.071643054
192	0x3d801b83	0.062552474
193	0x3dbb6a8c	0.091511816
194	0x3d55d425	0.05220427
195	0x3d84ccbb	0.06484362
196	0x3d8ae776	0.06782429
197	0xbdaed1ce	-0.08536111
198	0xbc2ad92b	-0.010427753
199	0x3d8ad952	0.06779732
200	0x3d445457	0.047931995
201	0xbdb72568	-0.089426816
202	0xbccca1b4	-0.02497945
203	0xbc953b1b	-0.01821666
204	0xbcf7839b	-0.030214122
205	0xbd2f14ea	-0.042744555
206	0x3ddb9ab5	0.107228674
207	0x3caacf40	0.020850778
208	0xbc58e756	-0.013238749
209	0xbcb5c536	-0.022188764
210	0x3baf1b80	0.0053438544
211	0xbc2763ae	-0.010216637
212	0x3c74a8e5	0.014932846
213	0xbd78babb	-0.060724955
214	0x3d825010	0.06362927
215	0x3d951180	0.072787285
216	0x3cf4f56e	0.029902186
217	0x3da78266	0.081791684
218	0xbd193ecf	-0.037413415
219	0xbd11b121	-0.035569314
220	0xbd8133b9	-0.063086934
221	0xbe0167f6	-0.12637314
222	0xbc80d4b5	-0.015726427
223	0xbd9c61a3	-0.0763581
224	0xbdcbb837	-0.099472456
225	0xbd196fbe	-0.03746008
226	0xbd8aa09a	-0.067689136
227	0xbd1736e8	-0.036917597
228	0xbd8021f4	-0.06256476
229	0xbd89a14b	-0.06720217
230	0x3d37cfbc	0.044875845
231	0xbc1bb5a8	-0.009503759
232	0x3c81431f	0.015779076
233	0xbc8ef910	-0.017452747
234	0xbda8ebef	-0.08248126
235	0x3d8cccb9	0.06874985
236	0x3e16b543	0.14717583
237	0xbb23a5df	-0.0024970693
238	0x3dada038	0.08477825
239	0x3e01710b	0.12640779
240	0xbd6e94eb	-0.058247488
241	0xbd9878d2	-0.0744492
242	0x3dc8f8cf	0.098130815
243	0xbd04630d	-0.032321025
244	0xbd8faad5	-0.070150055
245	0xbd845b8a	-0.06462772
246	0x3cefbf8c	0.029266141
247	0xbc4b9915	-0.012426634
248	0xbdb1659a	-0.08661957
249	0x3c46c9b8	0.012133054
250	0x3cd3dedc	0.025863104
251	0x3d142e04	0.036176696
252	0xbb9aad27	-0.0047203484
253	0x3d2f2b93	0.042766165
254	0x3d4b5e9c	0.049650773
255	0xbc3de92a	-0.011591235

bias f4 [32]
0	0x3dacfa87	0.08446222
1	0xbd95e0a7	-0.0731824
2	0xbd13962b	-0.036031883
3	0x3d988a35	0.07448236
4	0x3d01f412	0.031726904
5	0xbd2cca3d	-0.042185057
6	0x3cc78842	0.024356965
7	0xbcbf8b97	-0.023381991
8	0xbd9c25a0	-0.07624364
9	0xbce93b3a	-0.028470624
10	0x3d8d83d1	0.069099076
11	0x3b73cac2	0.003719971
12	0x3d38d9ed	0.045129705
13	0x3cc76e37	0.024344547
14	0x3ab1f1ac	0.0013576052
15	0xbc6b83c8	-0.014374681
16	0xbd9a96b9	-0.07548279
17	0xbdebb5f6	-0.11509316
18	0x3ddd325a	0.108006194
19	0xbc43d05c	-0.011951532
20	0xbce04866	-0.027378272
21	0x3d54a237	0.051912513
22	0xbb39abcf	-0.0028331166
23	0x3e3e544e	0.18586847
24	0x3d538045	0.051636
25	0x3df534a7	0.11972933
26	0xbd52a15e	-0.051423423
27	0xbd3093c2	-0.043109663
28	0x3e86e486	0.26346225
29	0xbd618080	-0.055054188
30	0x3b48d826	0.0030646413
31	0x3cdd07cc	0.026981257

weight f4 [64, 32, 3, 3]
0	0x3c61a0e7	0.013771272
1	0x3cdc24be	0.026872989
2	0x3d43297a	0.047646977
3	0x3cee3ea4	0.029082604
4	0x3d1215fe	0.035665505
5	0xbcce2247	-0.02516283
6	0xbd466014	-0.04843147
7	0x3d3c6d79	0.04600284
8	0xbd40f2df	-0.04710662
9	0xbc488737	-0.012239269
10	0xbd0e962c	-0.034811184
11	0x3cd97ded	0.026549304
12	0x3d517335	0.05113526
13	0x3d5548de	0.052071445
14	0x3c654d52	0.013995485
15	0xbd1ba11b	-0.03799544
16	0xbd08c083	-0.03338672
17	0x3d23054b	0.03979997
18	0xbd3c4df6	-0.045972787
19	0x3c87814e	0.01654115
20	0xbd7a5c71	-0.061123315
21	0x3ce876ae	0.028376903
22	0xbd05a792	-0.03263051
23	0x3d538007	0.05163577
24	0x3cb41819	0.021984147
25	0x3d22aef0	0.039717615
26	0x3c98279a	0.018573571
27	0xbd49d0a4	-0.04927124
28	0xbc633021	-0.013866455
29	0xbd249acf	-0.0401867
30	0xbd0cb28e	-0.03434997
31	0x3d01ecbf	0.03171992
32	0x3c8b2ca1	0.016989054
33	0x3c85db80	0.016340017
34	0xbbcaf774	-0.0061940495
35	0xbb94fcbd	-0.0045467303
36	0xbbd0d584	-0.0063731093
37	0x3c5015d0	0.012700513
38	0x3c9a7dfc	0.018858902
39	0x3bef7b65	0.007308411
40	0xbd22482a	-0.039619602
41	0xbafe8f86	-0.0019421435
42	0x3d1a83fd	0.03772353
43	0xbcca7144	-0.024712212
44	0x3c9931f4	0.018700577
45	0x3cfcf535	0.030878643
46	0xbd3a00fb	-0.04541109
47	0xbd04569b	-0.032309156
48	0xba84d500	-0.001013428
49	0x3c9a59fe	0.01884174
50	0x3cd47fdb	0.025939872
51	0x3cc9fe9a	0.024657536
52	0x3d18e5e6	0.037328623
53	0x3d21a59c	0.039464578
54	0xbb8c3253	-0.00427846
55	0xbd549ed4	-0.051909283
56	0xbd376e1f	-0.044782754
57	0xbd274fc7	-0.040847566
58	0xbc462aec	-0.012095194
59	0xbd817085	-0.063202895
60	0x3d2f6c98	0.042828172
61	0xbd8359c5	-0.064136066
62	0xbce95a9e	-0.028485592
63	0xbcf0fb80	-0.0294168
64	0x39cd745b	0.0003918734
65	0xbb55c959	-0.0032621233
66	0x3c21bc7e	0.0098716
67	0xbcd44453	-0.025911486
68	0xba5429c5	-0.00080933823
69	0xbd1e351a	-0.03862486
70	0x3cc564e6	0.024095964
71	0xbd608142	-0.05481077
72	0xbd45ff6b	-0.04833929
73	0x3d14ff1e	0.03637611
74	0x3bc56db3	0.00602504
75	0xbcca22c8	-0.024674788
76	0x3cdfaf5c	0.027305298
77	0x3c990e9d	0.018683726
78	0x3d239847	0.039940145
79	0x3cfa8e19	0.030585336
80	0x3d3f5143	0.046708357
81	0x3d0b5305	0.03401472
82	0xbc10870a	-0.008821258
83	0xbc886fff	-0.016654966
84	0xbce576f1	-0.028010817
85	0x3c341a22	0.010992559
86	0xbb57b7dc	-0.0032915985
87	0xbcd2c14f	-0.025726942
88	0xbd5f9535	-0.054585654
89	0xbd06c0bc	-0.03289865
90	0x3cc086c2	0.023501758
91	0x3abf6f8e	0.001460539
92	0x3d475d3f	0.04867291
93	0xbcf57690	-0.029963762
94	0xbcc12d29	-0.023581104
95	0xbd5d510b	-0.054032367
96	0xbd1109c0	-0.03540969
97	0xbce0c444	-0.027437337
98	0xbd35ee10	-0.044416487
99	0x3c234276	0.009964576
100	0xbb7b3bbb	-0.0038335163
101	0x3cdea2fb	0.027177325
102	0xbd1b009e	-0.037842385
103	0x3d4fa571	0.050694887
104	0xbd51a1fb	-0.051179867
105	0x3d509343	0.05092169
106	0xbd1106c9	-0.03540686
107	0xbd80061a	-0.06251164
108	0xbb84e8a0	-0.0040560514
109	0xbbc45125	-0.0059911185
110	0xbce048b4	-0.027378418
111	0x3c687091	0.014186994
112	0x3d17ae89	0.037031684
113	0x3c4049bd	0.011736331
114	0x3c1c10af	0.009525462
115	0xbcd95457	-0.026529474
116	0xbd3b8a3b	-0.045786124
117	0xbc923d63	-0.017851537
118	0xbd42ee1f	-0.04759037
119	0xbd060827	-0.03272262
120	0x3b8878da	0.0041647973
121	0xbbfd1189	-0.0077230376
122	0x3c8d8154	0.017273583
123	0x3d4eb2ae	0.05046337
124	0x3cf004d5	0.02929918
125	0xbd23c8e0	-0.03998649
126	0x3b2df9d4	0.0026546614
127	0xbb0f3c88	-0.0021856148
128	0x3d564db6	0.052320205
129	0xbd6112bc	-0.054949507
130	0x3ba58b62	0.005052016
131	0xbcf0f0e7	-0.029411746
132	0xbcb7aef1	-0.022422286
133	0xbd47a970	-0.048745573
134	0xbd4d6418	-0.050144285
135	0xbd297feb	-0.041381758
136	0xbc59c97f	-0.013292669
137	0x3c20a5d2	0.00980516
138	0xbd3ae0d4	-0.04562457
139	0xbd3f2c21	-0.046672944
140	0xbd38a141	-0.04507566
141	0x3bc94228	0.0061419196
142	0xbcd64e62	-0.026160423
143	0xbd4f18f8	-0.05056092
144	0xbd5edbed	-0.054408956
145	0x3d4d67db	0.050147872
146	0xbbe294ad	-0.006914696
147	0xbba84ce6	-0.00513612
148	0xbc6026ec	-0.013681155
149	0xbd04d761	-0.032431964
150	0x3c9072b6	0.017632823
151	0xbd3de334	-0.046359256
152	0x3c5f2b1b	0.013621117
153	0x3ccde226	0.02513225
154	0xbd52cf1b	-0.051467042
155	0x3c6f6f0d	0.014613879
156	0xbd55c322	-0.052188046
157	0x3c712714	0.01471879
158	0x3d68d7e5	0.056846518
159	0x3cad09e6	0.021122884
160	0xbc6236b1	-0.013806985
161	0xbd56767b	-0.052359086
162	0x3ccf2f6b	0.025291165
163	0x396c6791	0.00022545295
164	0x3cd1a5fa	0.02559184
165	0xbcfc2665	-0.030780027
166	0xbd3de30b	-0.046359103
167	0xbd3ad47b	-0.045612793
168	0x3d4c4eb9	0.049879763
169	0xbd0c1fe6	-0.03421011
170	0x3983876b	0.0002508716
171	0x3caf38cb	0.021389386
172	0xbd1c2edd	-0.03813063
173	0x3d234c63	0.03986777
174	0xbccb4423	-0.024812764
175	0x3c1ba34c	0.009499382
176	0x3cfb265d	0.030657941
177	0x3c1a4ed8	0.009418212
178	0x3d1e5ccf	0.038662728
179	0x3c59e268	0.013298608
180	0xbcc2211d	-0.02369743
181	0xbd084d9a	-0.03327713
182	0x3cf2fe24	0.0296622
183	0xbd1c9883	-0.038231384
184	0xbd0fb9da	-0.03508935
185	0xbd24af3f	-0.04020619
186	0xbd53dedb	-0.051726203
187	0xbc4c3963	-0.012464854
188	0x3cf8572e	0.030315008
189	0x3cf056bb	0.029338231
190	0xbd6b76f4	-0.05748649
191	0xbcf168f8	-0.029468998
192	0xbd18db96	-0.03731879
193	0xbd828573	-0.0637311
194	0xbcac0964	-0.021000572
195	0x3b1c3b7e	0.002383917
196	0x3c993043	0.01869977
197	0xbd82a70b	-0.06379517
198	0xbd635e8a	-0.05551008
199	0xbd308bbc	-0.04310201
200	0x3c8c2508	0.017107502
201	0xbcb15003	-0.021644598
202	0xbcb80c4d	-0.022466803
203	0x3cfbd24c	0.030739926
204	0xbc5c1033	-0.013431597
205	0xbc9b843f	-0.018983958
206	0xbd698465	-0.057011027
207	0xbcd82be7	-0.026388122
208	0x3ac37041	0.0014910774
209	0xbc3d2fd8	-0.011547051
210	0xbc2571e6	-0.010097956
211	0xbd59defb	-0.053191166
212	0xbcd8fbac	-0.026487194
213	0xbd3167b0	-0.043311775
214	0xbc17e468	-0.009270765
215	0x3cc49011	0.023994477
216	0xbd4fd49b	-0.050739866
217	0xbd3f5aaa	-0.046717323
218	0x3c45475d	0.01204094
219	0xbd05944e	-0.032612137
220	0xbcf36092	-0.029709134
221	0xbc9c8004	-0.019104011
222	0x3ced340c	0.028955482
223	0x3b883a4d	0.0041573406
224	0xbd4054e8	-0.046955973
225	0xbc883ea5	-0.016631434
226	0x3d162b25	0.03666224
227	0xbd333f4c	-0.043761536
228	0x3cf0b671	0.02938387
229	0xbd444fce	-0.04792767
230	0x3d40a21f	0.04702961
231	0x3d2a0e1d	0.041517366
232	0xbd3ac481	-0.045597557
233	0xbac789d4	-0.0015223571
234	0xbd4c4ce3	-0.049878012
235	0x3c851df2	0.01624963
236	0x3c6c6014	0.014427204
237	0x3d2e28ff	0.042519566
238	0xbd1f63ed	-0.038913656
239	0x3cbceaf8	0.02306126
240	0xbd2bdeac	-0.041960403
241	0xbd11a290	-0.035555422
242	0x3bb7351a	0.005591047
243	0xbccfaf54	-0.025352158
244	0xbc0bf2a0	-0.008541733
245	0xbd3a2429	-0.04544464
246	0x3c9608ac	0.018314682
247	0x3d128705	0.035773296
248	0xbd226d5b	-0.03965507
249	0xbc59656e	-0.013268812
250	0xbd098d05	-0.033581752
251	0xbd0fb750	-0.03508693
252	0x3d54d97b	0.051965218
253	0xbc8edb81	-0.017438652
254	0xbd2b22c2	-0.041781195
255	0x3c98a636	0.018633943

bias f4 [64]
0	0xbcc98558	-0.024599716
1	0xbc2f84df	-0.010712831
2	0xbcf397d1	-0.029735478
3	0x3caddcba	0.021223415
4	0x3d4b7083	0.049667846
5	0x3db6a8d6	0.08918922
6	0x3c6a190a	0.014288196
7	0xbd391d63	-0.04519404
8	0x3d563d45	0.052304525
9	0x3ae54028	0.0017490434
10	0xbb8d26c6	-0.0043076007
11	0xbd3e39b5	-0.046441752
12	0xbdcff3bd	-0.10153911
13	0x3d04ec6a	0.032452025
14	0x3bd6fe67	0.006561089
15	0x3d17e7c0	0.03708625
16	0x3d1d6c38	0.038433284
17	0xbd92c738	-0.07166904
18	0x3d54df4e	0.051970772
19	0xbd3aa19d	-0.045564283
20	0x39bf4a5b	0.00036485758
21	0xbd082c6f	-0.0332455
22	0xbcdb6da1	-0.026785674
23	0xbd1fe11a	-0.039033033
24	0xbdba2f8d	-0.09091101
25	0xbcc8913f	-0.024483321
26	0xbb302d04	-0.00268823
27	0x3d410829	0.047126923
28	0xbc9483d6	-0.01812927
29	0xbdb22ea2	-0.08700301
30	0xbd92e459	-0.0717246
31	0xbd0bb8bc	-0.034111723
32	0x3d6e8a29	0.05823723
33	0xbd861c71	-0.065483935
34	0xbd8f5533	-0.06998672
35	0x3d8bb888	0.06822306
36	0x3a2b7353	0.0006540317
37	0xbd975488	-0.0738917
38	0xba8befb0	-0.0010676291
39	0xbcd7fd80	-0.026365995
40	0xbd31cf0e	-0.043410353
41	0xbcd2aa68	-0.025716022
42	0x3a79785e	0.00095165323
43	0x3d30d58e	0.04317241
44	0x39127331	0.00013966557
45	0x3d341758	0.043967575
46	0x3dafd14b	0.08584841
47	0xbc0715f6	-0.008244982
48	0x3bdf74ce	0.006819344
49	0x3d0cd9d8	0.03438744
50	0xbd0d406a	-0.03448526
51	0xbd65f3e2	-0.056140788
52	0xbd041fa9	-0.032256756
53	0xbc06f24e	-0.008236481
54	0xbd4c6c3e	-0.049907915
55	0xbcbafbcf	-0.02282515
56	0xbd1cd310	-0.038287222
57	0x3a12937d	0.00055914355
58	0x3ada79aa	0.0016668339
59	0xbca82cc3	-0.020529157
60	0x3b9087c2	0.004410715
61	0xbcccb6d7	-0.024989529
62	0x3d2949d2	0.041330166
63	0x3ce6621c	0.028122954
