rotnet.pt (torch, 96791 bytes, 6 tensors)

weight f4 [16, 1, 3, 3]
000000 24 21 69 be 2d f7 9e 3e 29 4f 7c 3e 88 18 92 be
       -0.22766548 0.31047955 0.24639572 -0.2853434
000010 0c 2e a2 be 22 a9 20 3e 5d 6b 88 be cb 20 a6 3d
       -0.31675756 0.15689519 -0.26644412 0.081117235
000020 5b d5 d5 be d5 5a 22 3e 40 07 65 bd a2 0f 3a 3d
       -0.4176434 0.15854962 -0.055915117 0.045425065
000030 12 fe 38 be 3a 59 e2 3d 2b 51 ce 3e ef 2b bb be
       -0.1806567 0.11052175 0.402963 -0.36556956
000040 02 73 4e be 06 96 a7 3e f2 0c e5 bc f7 1f 5a bd
       -0.2016106 0.32731646 -0.027960274 -0.05325314
000050 ec 3e 11 3e 00 5e ef 3d 12 7d 7e be 80 3a 5a 3e
       0.14184159 0.11687851 -0.24852398 0.21311378
000060 b8 32 8e 3e 1e cb 87 be a2 52 52 3e 4c 38 12 be
       0.2777307 -0.26522154 0.20539334 -0.14279288
000070 45 f9 8d be 9b f2 46 be 99 fa e3 bd 29 77 e7 bd
       -0.2772924 -0.19428484 -0.11131782 -0.11302025
000080 16 26 b4 3e 8e bf 85 be 24 2c 19 3e da ad de bc
       0.35185307 -0.26122707 0.14958245 -0.027182508
000090 1b 78 9e 3e e2 07 36 bd c3 38 32 3e 3c d4 ab 3e
       0.30951008 -0.04444111 0.17404465 0.3356036
0000a0 ed 2a 0b be cf 7c 5f be 51 10 69 bd 8c 34 22 be
       -0.13590594 -0.21824954 -0.056900326 -0.15840358
0000b0 bb 7a b1 be a9 0c a2 3e df b3 9e 3e 2d 76 5d 3e
       -0.34663948 0.31650284 0.30996606 0.21627112
0000c0 3e e8 a6 3e e2 b0 9b bc 1e ef 88 3d aa db 9d bd
       0.32599062 -0.019005243 0.06686233 -0.07707913
0000d0 39 1d 4b bd 69 04 06 3e c4 40 24 bc 85 eb 80 3e
       -0.049588416 0.1308762 -0.010025207 0.25179687
0000e0 5b 72 58 be 12 b2 02 be 1e af 60 3e 82 fe ac 3d
       -0.21137373 -0.12763241 0.21941802 0.08446981
0000f0 0b 36 69 3e b5 7f a4 3e 80 38 58 3d 45 31 65 be
       0.22774522 0.32128683 0.052788258 -0.22382076
000100 7e db 4f be 55 33 32 3e 5f a2 06 be 98 97 16 3e
       -0.20298573 0.17402394 -0.13147877 0.14706266
000110 35 a8 02 3e 02 a7 ab 3e a3 9a 6a 3c c0 56 6c 3e
       0.12759478 0.33525854 0.014319095 0.23079967
000120 30 ac f5 bd a1 4c 52 be a2 9f 45 be b5 50 65 3e
       -0.11995733 -0.20537044 -0.19299176 0.22394069
000130 b5 89 76 bd aa 63 c6 be 58 ae d1 3d 98 9a 79 3e
       -0.06018992 -0.38747913 0.102383316 0.24375379
000140 cb 99 aa 3e 85 a0 59 bd c9 f8 94 be da 9e 0c be
       0.3332046 -0.0531316 -0.29096058 -0.13732472
000150 7f fd 9c be ea ef 48 3e 23 48 81 39 bb 80 5d 3e
       -0.30662152 0.1962277 0.00024658543 0.21631138
000160 48 c5 09 3e 56 72 80 3e fe 49 2a 3e f1 6a 37 3e
       0.13454163 0.2508723 0.16629788 0.17911889
000170 55 5c a6 3d dd e9 ce 3d b9 ab 75 be bb 1e a0 3d
       0.0812308 0.101032 -0.23991288 0.07818361
000180 49 fd c5 3d 43 41 32 bc 68 ed 45 3e 18 00 20 bc
       0.09667451 -0.010879817 0.19328845 -0.009765647
000190 80 f0 49 be e3 0f 26 be 1f 57 08 bd e1 b3 ad be
       -0.1972065 -0.16216998 -0.03328621 -0.339263
0001a0 c7 2c f6 3c be 14 75 be f0 24 c5 bd 4f b1 2d 3e
       0.030050648 -0.23933694 -0.09626186 0.16962169
0001b0 c0 f4 dd 3d 0b 0e 13 bd 66 76 dc bd 10 b0 c8 bd
       0.10837698 -0.035902064 -0.1076477 -0.09799206
0001c0 66 54 6c be 3c 17 8c be c8 b5 25 3e 82 d4 98 be
       -0.2307907 -0.27361476 0.16182625 -0.2984963
0001d0 96 1c 6a bd db 01 a8 be 0e d7 87 be 08 db 57 be
       -0.057156168 -0.32813916 -0.2653126 -0.21079648
0001e0 88 fe 3e be a6 23 e5 3d 53 36 42 be aa ee 04 bd
       -0.18651783 0.1118844 -0.18966036 -0.03245417
0001f0 7a c6 4e 3e 14 9f c6 3e fe b4 41 be 58 54 0f bf
       0.201929 0.38793242 -0.189167 -0.55988073
000200 61 10 3d be b8 5c f2 be 6f 0e 1f 3e cd e7 ea bc
       -0.1846328 -0.47336364 0.1553285 -0.028674984
000210 6e 3d fe bd 8e 23 4f be 89 82 c4 3e a0 88 5d bd
       -0.124140605 -0.20228407 0.3838084 -0.054085374
000220 28 45 0e be 26 71 d0 bd 9b 80 29 be bb a8 27 be
       -0.13893569 -0.10177831 -0.16552965 -0.1637296
000230 7f f0 a4 be eb 88 a6 3c 0b df 4d 3e 40 5b 8f be
       -0.32214734 0.02032896 0.20104615 -0.27999306

bias f4 [16]
000000 85 d4 d1 3c bc 67 28 be b7 29 4a be 20 be cc bb
       0.025614033 -0.16445822 -0.19742475 -0.0062482506
000010 3c 85 a2 bb 8f 88 98 3b 1e f8 35 be 4d 26 09 3e
       -0.0049597304 0.004654951 -0.1777043 0.13393517
000020 8e a8 a3 3a 40 61 2e be 1c c8 1a 3e 7b 2f b7 3e
       0.0012486146 -0.17029285 0.15115398 0.35778412
000030 57 a3 a4 be 8f 2f 0f be 9a da b4 b9 00 2c 95 be
       -0.32155868 -0.13982986 -0.00034495146 -0.29135132

weight f4 [32, 16, 3, 3]
000000 82 04 0d bd 9d ef 2b 3c 47 80 f4 3d 39 5c 1e bd
       -0.034428127 0.01049414 0.119385295 -0.03866217
000010 73 72 74 bd e6 32 0e bd 0a 6b 5e be 3e 68 7a be
       -0.05967946 -0.03471651 -0.2172052 -0.24453828
000020 a9 85 3d be 02 b0 b9 bd 95 59 bc 3d 96 1e 09 3e
       -0.18508019 -0.09066774 0.09196774 0.13390574
000030 bd 64 68 3d 3f 14 94 3d eb ea 0f 3e 9c b2 a7 bd
       0.056736697 0.07230424 0.14054458 -0.08188364
000040 32 6a bf bd 0c 1f bb 3d 05 c0 13 bd d8 2e 2d be
       -0.09346427 0.09136781 -0.036071796 -0.169124
000050 e2 fc 13 bc ff 28 90 bc b2 82 75 3c b4 27 ca 3c
       -0.00903246 -0.017597673 0.0149847735 0.024677135
000060 67 0f 53 3d db b6 c7 bc c4 48 07 3e 06 1a 6e bd
       0.05152836 -0.024379184 0.13211352 -0.058130287
000070 eb 4a 9a bd 43 0a 33 3d 66 e3 96 3d 24 48 8f bd
       -0.07533821 0.04371096 0.073675916 -0.069961816
000080 01 c9 cb bc 64 2c 87 3d 30 19 c5 3d 76 cd e8 3c
       -0.02487612 0.06600264 0.09623945 0.028418284
000090 23 1e a8 3d 60 e4 f1 3d 77 94 b8 bd 96 6d fe ba
       0.08208873 0.11811137 -0.090126924 -0.0019411321
0000a0 02 44 bf 3b 9b 43 d9 bd d2 0d e6 3a 2e e7 00 be
       0.0058369646 -0.10608598 0.0017551726 -0.12588188
0000b0 70 eb 35 be 76 7a 1a 3d fb 9d f6 3d ae 9f 20 3e
       -0.17765594 0.037714444 0.12041851 0.15685913
0000c0 b0 dc 7d 3d 02 fe 49 3d bb 0a fc 3d 30 b8 1c bd
       0.061978042 0.049314506 0.12306734 -0.038261592
0000d0 d8 bf 23 bd c3 20 70 3c 7e 6e 94 3c be 04 93 bd
       -0.03997788 0.0146562485 0.018119093 -0.07178639
0000e0 3e 3c 46 3d 96 6a e1 bd ab e5 12 3d 45 d6 f8 3d
       0.048397295 -0.11006658 0.03586356 0.12150244
0000f0 f8 d2 65 bd b3 80 2d 3d d0 71 af 3d d8 79 1c bd
       -0.0561094 0.042359065 0.0856663 -0.038202137
000100 48 9a 0e bd b3 30 9c 3d f0 6b 50 bd 98 4b 0b b9
       -0.034815103 0.07626476 -0.050884187 -0.00013284234
000110 0d 29 32 3e 8f b8 3b 3d e2 64 1a 3d 91 f3 1f 3e
       0.17398472 0.045830306 0.037693866 0.15620257
000120 97 2c c9 bd 5c 0a df bd be f2 d7 bc 99 40 e5 bc
       -0.09822958 -0.10890648 -0.026360866 -0.027984904
000130 db 19 6d bd c8 eb b7 bd 1c 0a 8c 3d 1b b9 98 3d
       -0.057885986 -0.089805186 0.06837866 0.07457181
000140 e9 56 51 bc 9e 5e 02 3e 66 7d 19 bd d4 c3 12 be
       -0.012777069 0.12731406 -0.037473105 -0.14332515
000150 d7 63 40 3e 05 00 16 3d d6 2e 15 3d 0a 2d 02 3e
       0.18788086 0.036621112 0.03642162 0.12712494
000160 e2 07 4d 3d 4d 32 ca bb ae dc d2 bc d5 b6 a2 bd
       0.050056346 -0.006170547 -0.025739994 -0.07945029
000170 5c b6 91 3d 21 79 b3 bc 2a 0a c1 bc a7 64 a5 3b
       0.071148604 -0.021908345 -0.023564417 0.005047399
000180 a9 86 f8 bd e8 f8 5e 3d 0f 59 d6 3d b1 17 3c be
       -0.121350594 0.054436594 0.10466205 -0.18368413
000190 00 45 c6 bd a6 26 4d bd d0 93 c4 bc f6 54 9f 3c
       -0.096811295 -0.050085686 -0.023996264 0.019449692
0001a0 1d 55 e6 bb fb 2c 74 bd 29 17 c3 bd 6d 76 49 bd
       -0.0070291893 -0.05961321 -0.09525902 -0.049185205
0001b0 10 08 cc 3c 2e 7b 12 bd c6 ba e8 bc 3e 9d 96 bd
       0.024906188 -0.035762005 -0.028409373 -0.0735421
0001c0 56 ee 52 3c 16 49 1a 3d 74 f7 9d 3d 73 db 36 bd
       0.0128742065 0.037667356 0.077132136 -0.044642877
0001d0 2b cf 9a 3d 43 66 e2 3c 00 a0 27 3d 17 72 b1 bd
       0.075590454 0.027636653 0.040924072 -0.08664339
0001e0 be 4f 88 3d 48 23 b8 3c 35 fe a4 bc 64 03 51 3d
       0.066558346 0.02247776 -0.020140747 0.051028624
0001f0 59 95 01 bc b0 09 4c bd df 11 91 3b 41 5c 3c bb
       -0.007909142 -0.049813926 0.004427179 -0.002874151
000200 63 16 85 bd 8d 17 23 bc 00 11 18 bd 27 2f 5b 3d
       -0.064984106 -0.009954345 -0.037125587 0.053511765
000210 a7 65 ab 3d ac ec 24 3e 32 de 92 3d 3b a5 86 3d
       0.08368998 0.16105908 0.07171287 0.06574484
000220 e6 c1 ed 3c c3 d4 5e 3d b6 12 3c 3c e7 73 91 bd
       0.029023122 0.054402124 0.01147907 -0.07102185
000230 56 72 9f 3d ab fd 7f 3b de 60 61 3d 02 16 96 3d
       0.0778548 0.003906111 0.05502402 0.073284164
000240 e4 10 be 3c 40 16 0b bd 87 d0 a1 bd a6 0b 6b bc
       0.023201413 -0.033956766 -0.079011016 -0.014346039
000250 92 b9 81 bc 3f 88 c8 bd fb 59 b8 3c 32 30 cb bc
       -0.015835557 -0.09791612 0.022503844 -0.024803255
000260 92 95 10 bd f7 75 98 3b be fe 67 bb 19 fa 41 3d
       -0.03529889 0.0046527344 -0.003539964 0.047357652
000270 79 9f 8b 3c e8 44 24 3d e3 ee 8c bd 53 e9 7d bd
       0.017043816 0.040104777 -0.068815015 -0.061990093
000280 69 90 c0 3d 10 92 2a bd 9a c5 14 be c3 12 18 be
       0.09402544 -0.041643202 -0.14528504 -0.14850907
000290 a7 14 ec 3d 17 ba 45 3d 47 ca 41 bd 70 51 1a 3d
       0.115273766 0.048273172 -0.047312047 0.03767532
0002a0 1f 4d 6b 3d 48 8e 50 3d d8 e1 81 3c 3b f6 e4 3c
       0.057446595 0.05091694 0.015854761 0.027949443
0002b0 fc 02 05 bc b8 e1 c5 3d b3 1c 65 bd c6 9e f2 3b
       -0.008118387 0.09662193 -0.055935573 0.007404181
0002c0 f5 25 18 3e 90 50 2e 3e ce 6c e4 3a 97 04 c3 3d
       0.1485823 0.1702292 0.0017427446 0.0952236
0002d0 60 10 80 3e d8 1d a9 3d 9c 3b 63 3d 8c 58 49 3e
       0.25012493 0.08257645 0.05547677 0.19662684
0002e0 84 b3 1e 3e ee e7 b1 3c 15 6a fc 3d d8 34 11 3e
       0.15498167 0.021717038 0.12324921 0.14180315
0002f0 9f 51 d4 bc 4c 84 de 3c f1 c9 9d 3d e9 4b a3 3c
       -0.025917826 0.027162693 0.07704533 0.019933658
000300 2a 04 e5 3d c8 8c 9d bd 56 df ff bd 6f b0 63 3d
       0.11182435 -0.076928675 -0.1249377 0.055588182
000310 22 c8 83 bc a1 86 f6 bd 1b 02 fc 3d 07 0a 7a 3d
       -0.016086642 -0.12037397 0.12305089 0.06104472
000320 00 da c0 bd c8 f8 40 3d c6 61 3c 3d 99 cf 93 bd
       -0.0941658 0.047112256 0.04599168 -0.072173305
000330 0a 6f 11 3e d1 b5 fd 3c ab 98 66 bd c1 25 fd bc
       0.14202514 0.030970486 -0.05629794 -0.030901792
000340 cf 80 f8 bd 77 cf 92 bc 70 d3 b6 3c 95 2d c9 bd
       -0.12133943 -0.017921193 0.022317618 -0.09823147
000350 00 18 27 bd d3 5b a2 bc 39 00 14 3d b1 86 0b 3d
       -0.040794373 -0.019819176 0.036133025 0.034064
000360 f7 85 44 3c a6 6a c6 3c 04 ee 74 3c 5b 30 14 be
       0.01199483 0.024220776 0.0149493255 -0.14471571
000370 4d 52 eb bd 45 28 4d 3b 39 95 5a bd 0a 8b 33 be
       -0.11490307 0.003130452 -0.053364966 -0.17533508
000380 fa 24 15 be 3d df f8 bd 7c bb 7b be cf f1 fa bd
       -0.14564887 -0.12151954 -0.24583238 -0.122531526
000390 d1 19 dc bd 31 77 e0 bd fa b5 3b be e2 e7 22 bd
       -0.107471116 -0.10960234 -0.18331137 -0.039771922
0003a0 62 f9 d4 bd e3 35 01 be a8 f4 11 3e 24 da 68 3d
       -0.103991285 -0.12618212 0.14253485 0.05684866
0003b0 02 4e be bc ef c0 5a 3d a9 92 99 3a ff 35 b6 bd
       -0.023230556 0.053406652 0.0011716682 -0.08897018
0003c0 9b 99 ea 3d 37 a4 78 bd 45 03 80 3b 29 81 8f bd
       0.11455079 -0.060703482 0.0039066398 -0.07007057
0003d0 46 90 66 3d 31 f8 90 3c 6f 09 44 bd 39 0a 44 bd
       0.056289934 0.017696472 -0.04786056 -0.04786131
0003e0 71 9b 4d bd 44 c3 0d 3c 2e ba c6 3c b7 9d ef bc
       -0.05019707 0.008652512 0.0242587 -0.029250009
0003f0 62 ac 98 3d c6 86 25 3d 36 f0 03 bc f6 9a d6 bc
       0.074547544 0.040411733 -0.008052876 -0.026196938

bias f4 [32]
000000 64 1a 9d bd 43 55 f2 3c 09 b3 93 bc 71 ce d8 bd
       -0.07671049 0.029581672 -0.018029707 -0.105862506
000010 a4 d7 0c 3e 6f 4a 2b 3d 70 dd e4 bc 1f 7d da 3d
       0.13754135 0.041819032 -0.02793762 0.10668396
000020 be 15 da 3b 25 97 11 bd aa 03 1b 3d 9d 33 b3 3b
       0.006655424 -0.035544533 0.03784529 0.0054687993
000030 b5 37 95 3c d9 50 84 bd b0 79 94 ba a6 b5 83 3d
       0.01821504 -0.06460733 -0.001132777 0.06431131
000040 cb 40 cd bc f8 b4 e9 bc f0 97 81 bd 1c 4b 17 bc
       -0.02505531 -0.028528675 -0.06327808 -0.009234216
000050 a8 88 71 bd 09 21 a2 3e 5c 18 5b bd b6 7a 84 bd
       -0.058968216 0.3166583 -0.053490028 -0.06468718
000060 97 b5 d5 bc ff 47 82 3d 63 b7 99 3d 89 a2 35 3d
       -0.026087565 0.063613884 0.07505681 0.04434446
000070 9f eb c6 bc 2e e0 30 bd d8 84 65 3d 48 c8 16 bd
       -0.024282275 -0.043182544 0.056034893 -0.036812097

weight f4 [64, 32, 3, 3]
000000 88 2d 00 be 32 1d 90 bd d8 c2 a1 bd 21 62 05 bb
       -0.12517369 -0.070368186 -0.078984916 -0.002035268
000010 d5 8d 29 bd ea a7 52 3d f0 d6 4e 3d 0b 73 3b bd
       -0.041395027 0.051429667 0.05049795 -0.04576401
000020 30 74 1c 3d 51 28 59 bd 97 0c 05 bd 49 e9 d1 3c
       0.038196743 -0.053016964 -0.03248271 0.025623934
000030 2d 41 0f bd a3 7a 35 be f5 6b 0f be a1 63 50 3d
       -0.034974266 -0.17722563 -0.14006026 0.050876264
000040 ae 15 37 bc 17 d2 0c bd 62 49 12 be a0 ce 97 bb
       -0.011174602 -0.034380045 -0.14285806 -0.004632786
000050 f4 6b e8 3c 94 19 c1 3b 32 52 c2 bd 58 5a ac bd
       0.028371789 0.0058929417 -0.09488334 -0.08415669
000060 e7 46 88 bc e3 bf 48 bb fc 5b 9a 3d ae 69 c5 bd
       -0.016635371 -0.0030631952 0.07537076 -0.096392974
000070 a5 86 08 be fc 71 66 bd 7a a9 84 3d bb d1 a7 bc
       -0.13332613 -0.056261048 0.064776376 -0.02048575
000080 91 e0 39 bc b8 23 b2 3d 94 07 fa 3c b5 46 4d 3d
       -0.011345045 0.08698219 0.030521192 0.05011626
000090 60 a5 44 be 7b cd 65 be 8c ca fb bd bb 6f e5 bc
       -0.1920371 -0.22441666 -0.12294492 -0.028007379
0000a0 90 e9 b6 bc 0c 9c 0e bd f7 f1 1d 3b 1d e8 e6 bc
       -0.022328168 -0.034816787 0.002410052 -0.028186852
0000b0 2f 03 88 bd 4c 0b 76 be 09 27 28 be 80 31 74 be
       -0.06641232 -0.24027747 -0.1642114 -0.23847008
0000c0 c3 58 28 3d f1 85 b5 ba 7f 1f ac 3d 4c 56 86 3c
       0.041100275 -0.0013849122 0.08404445 0.016398571
0000d0 5c eb 8b 3c e0 ba 98 3c cf 29 2a bd 49 54 f4 3c
       0.017080002 0.018643796 -0.041543778 0.029825347
0000e0 fb 29 b7 bc 0c b3 04 bd 53 3c 57 3d 8c a1 05 bd
       -0.022358885 -0.032397315 0.052547764 -0.032624766
0000f0 87 5a 91 3d 56 14 82 3d 64 fd c3 3d d6 aa 6d be
       0.07097345 0.06351535 0.09569815 -0.232097
000100 6f 9e 15 be ec 4b 50 be 11 ca 64 3c 45 02 a8 bd
       -0.14611219 -0.20341462 0.013964192 -0.08203558
000110 4d 36 aa ba 76 70 53 3d ed 5c 21 bd d1 27 b2 3c
       -0.0012986154 0.051620923 -0.03939526 0.021747502
000120 ee 9d 8c bd 00 e8 cb bc 6a 3b 65 bc fe 63 0c 3c
       -0.0686606 -0.0248909 -0.013991216 0.008568762
000130 4d ee e0 3a da cd be bc 23 b5 65 3d b0 69 38 3b
       0.0017160863 -0.023291517 0.05608095 0.0028139167
000140 1d 8f 0e 3d 69 c1 37 bd 59 29 57 bd 7d f1 e2 bd
       0.034804452 -0.044862185 -0.052529667 -0.110812165
000150 15 d0 27 3c 98 81 33 bd 7e 2f 64 bd f7 4d bb 3c
       0.010242482 -0.043824762 -0.055709355 0.022864325
000160 5a 40 09 bd 2c 5d 7e 3d ba 11 00 be 16 dd cf bd
       -0.033508636 0.062100574 -0.12506762 -0.10149591
000170 8e 1a 9e bd 82 e3 b6 39 d1 e5 17 bb 7f b4 8c 3a
       -0.07719909 0.00034883252 -0.0023177753 0.0010734944
000180 92 16 04 bd 35 08 1d 3b 8c 03 09 bd 5e 54 24 be
       -0.032248087 0.002396119 -0.03345065 -0.16047809
000190 cd 04 37 be 77 4b c4 bd a2 d3 b3 3d dc 9c c0 3b
       -0.17872925 -0.09584706 0.087806 0.005878074
0001a0 6e c9 1d 3c 88 4e 23 bd cb 7f 1f bc 9f 71 ff ba
       0.009630544 -0.039869815 -0.009735058 -0.0019488818
0001b0 5c e8 06 be c4 c3 31 be 23 1a 39 be 39 a3 87 3d
       -0.13174576 -0.17359835 -0.18076377 0.06622929
0001c0 21 ff 44 bc 4c 33 9f 34 f0 e2 26 3b 80 3d 87 bc
       -0.012023718 2.965338e-07 0.0025464855 -0.016508818
0001d0 79 7b 03 3d ce 94 4a bb 84 2e bc bc 41 ab 48 bc
       0.032100175 -0.0030911448 -0.0229714 -0.012247861
0001e0 01 5c dc 3c ca 7e b1 3c 5e d5 41 bb 98 2b a0 3c
       0.02689934 0.021666903 -0.002957664 0.019552037
0001f0 37 87 d5 bb 41 14 b5 3d 17 47 30 bd 00 36 4b bd
       -0.006516363 0.08841754 -0.043036547 -0.049612045
000200 a2 97 06 bd 75 c3 16 bd ed 83 5a 3b c6 63 73 3c
       -0.032859452 -0.036807496 0.0033342794 0.014855331
000210 ed 9c 81 3c 4a 8e 14 3d ed fe 34 bd 23 0b 19 be
       0.015821898 0.03626851 -0.04418843 -0.14945655
000220 10 ee 37 be 73 4f 38 be 67 c4 8e 3d 57 f1 8f 3d
       -0.17961907 -0.17999057 0.069710545 0.07028454
000230 d2 68 51 3d fd 2a ee 3c bb 20 55 bc 4c ac 67 3d
       0.051125355 0.029073233 -0.013008292 0.0565608
000240 31 0a 7d bd 36 9e 85 bd 90 02 21 bd 0b 99 23 bd
       -0.061777297 -0.06524317 -0.039309084 -0.039940875
000250 1d b5 93 bc fc a1 ec 3c 08 54 ac bb 9a e3 80 bd
       -0.018030697 0.028885834 -0.0052590407 -0.062934116
000260 1f 45 0b 3d ff fe 9c bd a4 77 45 3c 6b 19 25 bc
       0.034001466 -0.07665824 0.01205245 -0.010076861
000270 4d e2 cc 3c 1e b0 79 3d 7d ec ca bd af 9b fe 3c
       0.025010252 0.060958974 -0.09908388 0.031080095
000280 4e 46 7f 3d 65 04 62 3c 52 d4 2c 3c cb 2f 41 bd
       0.062322907 0.013794993 0.010548668 -0.04716472
000290 cb a9 19 3c cc ae 62 3d d2 d6 80 3b bf d6 6f bd
       0.009378861 0.05534248 0.0039318586 -0.058554407
0002a0 19 7e 3b bd ec 9c a8 bb b5 60 10 3c 93 a6 0f 3d
       -0.045774553 -0.0051456597 0.008812119 0.035070967
0002b0 f5 b8 fd 3c d1 74 83 bc 79 93 c8 3c ae 07 6b 3d
       0.030971983 -0.016046913 0.024484383 0.05738037
0002c0 24 be 6d bd 0d 62 ad bc 45 11 17 bd 59 74 45 3d
       -0.05804266 -0.021164918 -0.036881704 0.04820666
0002d0 d0 b7 07 be ee cd 0f be be 32 c3 bd bb 03 2d bd
       -0.13253713 -0.140434 -0.09531163 -0.042239886
0002e0 aa 21 38 bd 29 7f 79 3b f6 79 23 3d 4e cb 8c bc
       -0.04495398 0.0038070178 0.039911233 -0.017186787
0002f0 63 6f ec 3d 6f f2 4d be 1b 79 27 be 51 1f 4d be
       0.11544683 -0.20112012 -0.16354792 -0.20031478
000300 37 25 e3 bc 91 4f 8a bd d6 cd 33 bc fa a5 51 bc
       -0.027727706 -0.06753457 -0.010974368 -0.01279592
000310 40 3b 53 bd 2e 9d f3 bc ae e4 bf bc 8a 89 6e bd
       -0.051570177 -0.029738035 -0.023424473 -0.058236636
000320 ba 5a 56 bd fe 66 10 bd 50 e3 bb 3c 7d e0 b4 bc
       -0.052332617 -0.03525447 0.02293554 -0.0220797
000330 fd 95 c6 3d 2f 6d e0 3d 95 86 a0 3d 24 15 95 bd
       0.09696577 0.10958325 0.078381695 -0.07279423
000340 4f 06 b8 bd b5 4c d6 bd a9 ae 59 3d c6 a3 a8 ba
       -0.08985578 -0.104638495 0.053145085 -0.0012866191
000350 c2 7d 17 3d b0 cf 36 3d 96 84 ca bd 82 89 18 bc
       0.036985166 0.04463166 -0.0988857 -0.009310128
000360 8c 7d 00 be 35 39 69 bd ba 6b 73 bd cc df 44 bd
       -0.12547892 -0.056939323 -0.059428908 -0.04806499
000370 36 ec 96 3c 43 00 4f 3c 35 3b 80 3d 06 ee 2d 3c
       0.018423181 0.01263434 0.06261293 0.010615831
000380 94 13 63 3d aa f2 35 be e2 5c 6e be 3c f3 29 be
       0.055438593 -0.1776835 -0.2327762 -0.16596693
000390 c9 5e d7 bc 70 46 1d bc 22 c2 11 3d df d9 43 3d
       -0.026290314 -0.009599313 0.03558553 0.0478152
0003a0 52 4f 02 3d be 57 dd 3c 3a e5 9c bd 15 99 49 bc
       0.031813927 0.027019378 -0.07660909 -0.012304564
0003b0 7a 81 85 3c db d7 e2 3c 06 02 fc b7 71 1f be bc
       0.01629709 0.027690819 -3.0041683e-05 -0.023208352
0003c0 0f cc d1 bc 1f 02 ac 3d ad 17 e6 3d b6 d0 69 bd
       -0.025609998 0.08398842 0.112349845 -0.057083808
0003d0 56 ed 74 bc ad a7 95 bd f8 6b 2a 3d 10 cd b8 3d
       -0.014949163 -0.07307372 0.041606873 0.090234876
0003e0 de 74 1d 3d 9a 39 47 3c 0b 28 94 3d 70 2a e2 3c
       0.03844153 0.012159729 0.072342 0.027608126
0003f0 f2 80 0d bd e8 71 87 bd 85 13 0b 3c 0e 90 b3 3d
       -0.0345468 -0.06613523 0.008488541 0.087677106

bias f4 [64]
000000 ad 93 dc bb 73 12 16 3c 4e 69 9a bd 41 fb 49 3d
       -0.0067314715 0.009159672 -0.075396165 0.04931188
000010 8b 4e b2 bc 63 74 8f ba da 67 6e bd 52 4b 81 bd
       -0.021765968 -0.001094472 -0.05820451 -0.06313194
000020 8c 88 92 bd 45 02 c3 3d b1 ff 46 bd d7 de ef bc
       -0.071549505 0.09521917 -0.04858369 -0.029281063
000030 8c 59 93 3c 24 41 b8 3d df 91 ef bc 93 fe ea 3c
       0.017987035 0.089967996 -0.029244361 0.028685844
000040 2d e7 c3 3d 54 08 01 3d 17 e4 ec 39 21 1e 56 3d
       0.09565578 0.031502083 0.00045183368 0.052274827
000050 90 03 fc bc 8f 1b dd 3c 63 7b 88 bd c4 be 62 bc
       -0.030763417 0.02699068 -0.06664159 -0.013839427
000060 4c 51 29 bd ac fc a9 bb b2 a4 9e 3d 3c eb 6a bd
       -0.041337296 -0.0051875915 0.07746257 -0.057353243
000070 70 23 b9 bd 8e 46 04 bd 7e 1c 22 3c 0e e3 40 bd
       -0.09039962 -0.03229385 0.009894488 -0.047091536
000080 8d 10 25 3d 78 d0 ae bc 8c 14 91 3d 62 71 dd bc
       0.040298987 -0.02133964 0.07083997 -0.027031604
000090 de 6f d6 3b 50 74 eb bc 4c 80 12 bb d0 5b f5 bd
       0.0065440973 -0.028741986 -0.0022354303 -0.119804025
0000a0 55 64 06 bd ef 00 36 3d 2b 3e 35 bc 6c 89 2e 3c
       -0.032810528 0.044434484 -0.011062185 0.010652881
0000b0 85 3e 26 3c 8c cb 0b 3d 92 8b 0d bd c8 f9 03 3e
       0.010146742 0.034129664 -0.034556933 0.12888253
0000c0 55 5a 02 bd c4 d5 b5 bd 45 ec 60 3d 36 be b1 3d
       -0.03182443 -0.08878663 0.054912824 0.08678858
0000d0 6f 9f 72 bd 3b d9 16 3d 1f 7e 5b bd c1 6a b6 bc
       -0.05923408 0.03682826 -0.053587075 -0.022267701
0000e0 e3 69 67 bd 7f 5e e6 bc 76 5b 21 bd 50 5b 84 39
       -0.056497466 -0.028121231 -0.039393865 0.00025245035
0000f0 bd f7 53 3c 27 fd 1e 3c 53 b0 20 bd 4c ca 32 bd
       0.012937483 0.009703911 -0.039230656 -0.043649957
